models/best_gin_featurizer.pth (torch, 377024 bytes, 5 tensors)

fc1.weight f4 [256, 300]
000000 04 59 23 bd 62 23 ca 3c cf d2 14 3c 39 cd 03 be
       -0.039879814 0.024675075 0.009083464 -0.12871255
000010 48 ef 4b bc 39 5a 83 bd ab a4 fa bd 17 0b f2 bc
       -0.012447186 -0.06413693 -0.12238439 -0.029546304
000020 b2 b7 4f bd e8 9e c0 bd f7 b2 bf bc e5 ce a0 bc
       -0.050712295 -0.09405309 -0.023400767 -0.019629905
000030 2d 02 2f 3e ae de ae 3d 2d 00 c4 3c 41 94 b3 3d
       0.17090674 0.085385665 0.023925865 0.087685116
000040 92 d2 00 bd c1 55 f9 bd 94 60 8d bc eb f4 1a 3d
       -0.031450815 -0.121745594 -0.017257966 0.03783123
000050 07 05 8b 3d 8e d6 8d bc 19 9b 28 bd 24 32 de bd
       0.06788068 -0.017314222 -0.041163538 -0.10849407
000060 2c 19 cf 3d 2c eb 7a 3c a8 5c 53 3c 96 28 2a ba
       0.10112223 0.015314858 0.012900509 -0.0006491033
000070 70 a2 d1 bc 49 01 4f 3c 77 39 c9 3b 63 0f 75 bd
       -0.025590152 0.012634584 0.0061408835 -0.059829127
000080 02 af 7b bb 9c bb c1 3d 72 0a 01 3e 49 c1 dc bc
       -0.0038403873 0.09459612 0.12601641 -0.026947634
000090 ef 4a cf bc 22 1e 52 bd 95 b7 a6 3c f4 98 8a 3d
       -0.025304286 -0.05129827 0.02035121 0.06767455
0000a0 f6 4e 3d 3c 27 72 a9 3e ac cf 47 bd be 04 10 be
       0.01155447 0.33094904 -0.048782036 -0.14064309
0000b0 7d 5c 1f 3e d8 cc 07 3e c2 e7 44 3a 9f 32 c2 bd
       0.15562625 0.13261735 0.0007511341 -0.094823115
0000c0 1b b0 4d 3c fe a9 50 bd f5 9c 8e bc 8b 09 47 3b
       0.012554194 -0.050943367 -0.017408827 0.0030370678
0000d0 bc d4 78 3e 78 c1 59 bb 9a 2a bf bd a0 bb 90 3c
       0.24299902 -0.0033226889 -0.093342975 0.017667592
0000e0 7c ea 00 3e 6a 35 0b bc 1b 12 eb bd a2 d4 48 3d
       0.12589449 -0.008496622 -0.11478063 0.049030907
0000f0 0a a9 dd 3d 62 87 fd 3c bf 92 e0 3d b7 d5 77 bd
       0.10823257 0.030948345 0.109654896 -0.06050655
000100 d8 26 9b 3d 92 d7 0e bd b9 ed 18 3e c4 c5 da 3d
       0.07575768 -0.034873553 0.14934434 0.10682252
000110 5c 93 59 3d b2 17 cf bc bc 7d 8c bd b3 ac 9e bd
       0.05311905 -0.025279853 -0.068599194 -0.077477835
000120 87 b5 bc 3d 4a 7f 65 bd 8d f6 a1 3c c5 de bd 3d
       0.09214311 -0.056029595 0.019770885 0.092710055
000130 0f 80 0c bc a1 3a 3c 3d ef 31 37 bd 03 1b 8a 3d
       -0.008575453 0.04595435 -0.044725355 0.06743433
000140 a7 3b 35 3d e7 1a 57 3d 97 4e 0c bd 6a 4b 21 3b
       0.044246342 0.05251589 -0.034254637 0.00246116
000150 8e 69 bc 3d 84 dc 84 bd 20 e6 bc be 45 3d 15 3c
       0.091998205 -0.064873725 -0.3689432 0.009108846
000160 b5 3f 9e 3d c9 12 20 bd ec 08 9c bd 38 77 31 3b
       0.07726995 -0.039080415 -0.07618889 0.0027079117
000170 e6 a5 09 3d d5 1f 5e bd 3c ed 3b 3d 92 52 49 3d
       0.03360548 -0.054229576 0.04588054 0.04915101
000180 a2 df 06 be 89 a7 29 3e 41 7b 72 3d 07 32 89 bd
       -0.13171247 0.16567816 0.059199575 -0.06698995
000190 64 ed 58 3d 23 d8 a1 bc a2 02 55 be 85 4e e7 bd
       0.05296077 -0.019756382 -0.20801786 -0.11294273
0001a0 52 93 12 bd 74 47 8f 3d 13 1b b1 3d 1f 8f 0d be
       -0.035785027 0.069960505 0.08647742 -0.13824128
0001b0 2b 4e d8 bb a3 80 fe bd a5 ef 17 be 01 2a 76 3c
       -0.006601115 -0.12426879 -0.14837511 0.015024663
0001c0 d7 15 9d bc 23 90 fa 3d ea 28 d6 3b 74 7e 84 bd
       -0.019175453 0.12234523 0.006535639 -0.064694315
0001d0 5f 55 97 bd d1 d4 82 3d e6 f2 8f 3c 33 30 0a be
       -0.0738933 0.06388248 0.017571878 -0.13494949
0001e0 b2 82 68 3d e6 ae 10 be 68 a7 ca ba d9 4e 19 be
       0.056765266 -0.14129218 -0.0015461268 -0.14971484
0001f0 31 37 a7 bd 26 9a 94 bd 70 52 1b bd 1a 1f 27 bc
       -0.08164824 -0.07255964 -0.037920415 -0.010200286
000200 ef ad 19 bd a6 94 dc 3d b0 d3 fb bc 67 67 ef 3c
       -0.03751939 0.1077054 -0.030740589 0.02922411
000210 c6 87 85 be c2 21 a8 3e e6 a3 5a be ee 75 1a 3e
       -0.2608015 0.32838255 -0.21351585 0.15084049
000220 fe 4b 29 3e 80 9c e2 3d 53 32 61 3c c6 e1 a3 bd
       0.16532895 0.11065006 0.013744908 -0.08002047
000230 8f 02 58 3d 7a 9a bf 3d 95 96 1c 3d fe 4c 43 bd
       0.052736815 0.09355636 0.038229544 -0.047680847
000240 ba fd 7c 3d 5e 6e 8e 3c c5 b5 c8 bd 0d 92 12 bd
       0.06176541 0.017386612 -0.09800295 -0.035783816
000250 12 58 16 be fe 1e 9d 3d 01 34 81 be 1c 3b 7a bc
       -0.14682034 0.07671927 -0.25234988 -0.015272882
000260 e7 7f 82 be d9 08 c1 bc 87 13 9e 3d 2a e5 37 3e
       -0.25488207 -0.02356379 0.07718568 0.17958513
000270 f7 57 ad 3c a3 2e a2 ba 2f 3c 1c 3d c4 b7 2c 3e
       0.021160109 -0.0012373518 0.038143333 0.16866976
000280 61 42 83 3d e5 01 01 bc ca f5 54 3d e4 da ee bc
       0.06409145 -0.007873987 0.051992215 -0.02915711
000290 7e 7b 3b bc 7e cc 05 bc ff b1 09 3e 6a ba ee 3d
       -0.011443017 -0.0081664305 0.13446806 0.116566494
0002a0 7b 32 67 bd 92 bb 06 3e 00 22 71 3d 03 bc d1 3d
       -0.056444626 0.1315749 0.058870316 0.102409385
0002b0 83 ed 66 3d 0b fa a7 bb fa e6 3a bd 17 44 a5 bc
       0.056378853 -0.005126243 -0.045630433 -0.02017407
0002c0 2b f2 f2 3a 19 03 32 3d d2 3e e6 3d 25 e0 06 be
       0.0018535306 0.043459985 0.11242451 -0.13171442
0002d0 39 ce 24 bd 77 5c ea 3d 24 4e cd bd 6a 25 27 3d
       -0.04023573 0.114434175 -0.1002467 0.040807165
0002e0 8c 6d 4d bd 37 95 ad 3d 8f 10 ad 3d e9 e3 38 bd
       -0.0501533 0.08475726 0.08450424 -0.045139227
0002f0 3b 8a a1 bc 22 75 98 3d 00 07 64 3d a9 36 e5 3d
       -0.019719234 0.07444216 0.05567074 0.11192066
000300 05 7f 58 be 0c 2b eb bc 5a 76 37 be d6 14 0a 3c
       -0.21142204 -0.02870705 -0.17916241 0.008427819
000310 a2 30 ac bd 7c 13 96 3c 3a dc 03 3d 6f 50 a4 3d
       -0.084077135 0.018319838 0.032192446 0.08023154
000320 3b 54 cd 3c de f4 a9 bb 4e 1b f5 3c d1 23 c2 bd
       0.025064578 -0.005186661 0.029920246 -0.09479488
000330 6a 1b 3f bc ae 45 59 3e 3a ce af 3d 5e b7 0a 3e
       -0.011664251 0.21217987 0.085842565 0.13546512
000340 89 ae 8e 3c 83 de f4 bd 11 54 94 bc 0c 04 0b 3e
       0.01741721 -0.11956503 -0.018106492 0.13575763
000350 31 f6 33 bf 96 8a 80 3c cb fb 99 bd 6b 5a fa 3d
       -0.70297533 0.015691083 -0.07518729 0.12224277
000360 39 42 1e be 53 ff c3 bd 7d f1 84 bd 5a 84 df bd
       -0.1545495 -0.095701836 -0.06491373 -0.10913916
000370 f4 ef 38 ba 31 17 cb bc 34 65 eb 39 81 36 15 bc
       -0.0007054799 -0.024791332 0.00044898095 -0.009107233
000380 ec 59 5a 3a 26 9d c7 bd eb 0c c0 3d c6 9e e6 3d
       0.00083294394 -0.097467706 0.09377464 0.112607524
000390 d8 25 6b 3d 3f ef 2d be d3 4e 1c 3e ce 34 80 3c
       0.057409137 -0.16985796 0.15264444 0.01565018
0003a0 7b 18 4b 3d 87 35 2a 3e 54 9b b5 bd 23 2e 3d 3e
       0.049583893 0.16621982 -0.08867517 0.18474631
0003b0 a1 de 70 bd e4 ab 4e bd 49 cf 9e 3d d3 d2 74 be
       -0.058806065 -0.050456896 0.0775438 -0.23908548
0003c0 25 92 5a be f8 01 ed 3c 98 d8 cc bd dc 2b 1e bd
       -0.21344812 0.028931603 -0.100022495 -0.038616046
0003d0 31 f2 80 3a 32 f4 57 3d 14 5c d9 3c 22 d6 e7 bb
       0.0009837804 0.052723117 0.026533164 -0.007075087
0003e0 a5 10 db 3c 8c b1 b4 3c 63 35 c1 3c 73 fa e3 3d
       0.026741335 0.022057317 0.023585027 0.11131754
0003f0 ad 6a 2a bd 77 5b 0c 3e e8 fe 14 3d 7a c9 42 3d
       -0.04160564 0.13706766 0.03637591 0.047555424

fc1.bias f4 [256]
000000 cb 50 b1 3c 71 00 d0 bd cc 82 2f bc 1b c1 d3 bc
       0.02164497 -0.10156334 -0.010712337 -0.025848916
000010 b4 d2 91 bd 8c ca 83 3d 98 38 0b be 19 97 d2 bc
       -0.071202666 0.06435117 -0.13595808 -0.025706815
000020 fc eb 01 be 34 2b a4 bd 50 57 80 bc cb 73 c9 bc
       -0.12687677 -0.08016053 -0.015666634 -0.024591347
000030 21 4c b9 bd 65 08 0e be 69 1d f8 3c b0 fd 2b bc
       -0.090477236 -0.1387039 0.030287461 -0.0104974955
000040 5c 2c 7a 3b ff e3 07 bd 71 c8 de bd 60 8a 24 be
       0.0038173413 -0.03317642 -0.10878075 -0.16068411
000050 93 72 31 bd 72 6b 6e bd 1f 26 5a bc 7d 3f de bd
       -0.043322157 -0.058207937 -0.013314753 -0.10851953
000060 27 61 19 bd 51 87 bd bc 1d f5 9c 3d 7f ac f0 bc
       -0.037446167 -0.023135813 0.07663939 -0.029379128
000070 a2 0e bf bd c3 f4 e5 bd ae eb 23 3d 35 e0 2b be
       -0.09328963 -0.11228325 0.040019684 -0.16784747
000080 7a a6 ca bd 90 97 6a bd f4 88 43 bd a2 1f 2e bd
       -0.09895034 -0.057273448 -0.04773803 -0.042510636
000090 e6 06 b1 bd 30 5d 5b bd 22 3c 11 3b 3c a9 2e be
       -0.08643894 -0.053555667 0.0022161086 -0.17056745
0000a0 a4 64 23 bd d4 39 14 bd 3b 12 dd bc cd 8a 1e bc
       -0.0398909 -0.03618796 -0.026986232 -0.009676647
0000b0 8b 5c 08 be 3b f5 49 bd a3 33 ee bd 2e c6 0f bd
       -0.13316552 -0.049306136 -0.11630943 -0.03510111
0000c0 64 ae c4 bd c3 ed d5 bd 30 67 e2 bc 22 6c a9 bc
       -0.09603575 -0.1044574 -0.027637094 -0.020681445
0000d0 f0 6d 7b bd 9e 32 aa bd 48 06 3e bd 8e f9 b5 bd
       -0.06138414 -0.08310436 -0.04639271 -0.088854894
0000e0 63 50 38 bd ac e5 f8 bd 5b 47 d1 bc 12 80 8d bd
       -0.044998538 -0.121531814 -0.02554672 -0.06909193
0000f0 ad f2 09 be ca 01 36 3e a2 b9 94 bd 3d 54 43 bd
       -0.1347148 0.1777412 -0.07261969 -0.047687758
000100 11 f1 17 bd e7 1c 46 3d 2e 44 33 bd 54 71 3d bd
       -0.037095133 0.048367407 -0.043766193 -0.046250656
000110 9b c6 7b bd 7f 10 ae 3c f8 e2 03 3d 31 d7 83 3c
       -0.0614687 0.0212481 0.032198876 0.016093822
000120 af 39 7f bd d1 53 4a bc 95 f2 19 be 5a 35 27 3b
       -0.06231087 -0.012349085 -0.15033944 0.0025513978
000130 81 d2 1d be dc 99 d9 bc e4 d6 68 bd cb 3a 82 bd
       -0.15412332 -0.026562624 -0.05684556 -0.0635887
000140 78 ad 29 bc ce 6e 6c bc 86 01 e7 bd b6 22 12 bd
       -0.0103563 -0.014430715 -0.112795874 -0.035677634
000150 73 11 b5 bb af 1e cc bc f5 68 44 3d 11 0e 2d 3c
       -0.0055257617 -0.024916975 0.047951657 0.010562436
000160 d2 f2 75 bd b4 ac 96 bd f8 64 9f bd a6 4a d4 bd
       -0.060046025 -0.07357159 -0.0778293 -0.103658006
000170 23 c0 9a bb e5 75 85 bd 7c 75 6d 3c ec e0 2c be
       -0.0047226115 -0.06516627 0.0144933425 -0.16882676
000180 51 8e be bd 1a 5a 96 bd b6 1a 8b bd d0 c9 29 be
       -0.093044885 -0.07341404 -0.06792204 -0.16580892
000190 40 d0 ee bd 34 b4 76 bd 9d 31 7f bc 1a b8 35 be
       -0.11660814 -0.06023045 -0.015575794 -0.1774601
0001a0 c9 db fe bd 7c 71 48 bd 4a 77 fa bc e2 18 33 3c
       -0.124442644 -0.048936352 -0.03057446 0.0109312255
0001b0 17 b5 9d bd 3a 65 51 bd e3 96 0f be 11 8d 84 bc
       -0.07700556 -0.051121928 -0.14022402 -0.016180547
0001c0 79 01 a0 bd ab bf 65 bd d6 30 7b bd aa 5d dd bd
       -0.07812781 -0.056090992 -0.06132587 -0.108088806
0001d0 48 26 12 bd 0c 53 18 3c 53 1e 02 be a0 c7 ab bd
       -0.03568104 0.009297144 -0.1270688 -0.08387685
0001e0 2f 0a 8f bd c0 7d 9c bd b4 1e 19 be dc 98 d9 bc
       -0.06984364 -0.076411724 -0.14953119 -0.026562147
0001f0 48 25 bb 3d 73 bf 11 bb 4f 14 53 3d 3e 80 87 bc
       0.0913797 -0.0022239357 0.05153304 -0.016540643
000200 05 f7 7f bd 7f da 46 bc 22 4a db bd 2f a5 e0 bd
       -0.062491436 -0.0121370545 -0.10707499 -0.10969006
000210 15 36 60 bd 9b a4 ab 3d 4d 76 07 be b4 df 6a bd
       -0.054739077 0.083810054 -0.13228722 -0.057342246
000220 18 05 8f bd 0a 80 3f bd 4f 14 d0 bd 16 37 5a bd
       -0.069833934 -0.046752967 -0.101601236 -0.05327519
000230 30 89 f0 bc 55 b6 eb 3b 1e 6b 0b bc 1e 63 b2 bd
       -0.029362291 0.0071933665 -0.008509425 -0.08710311
000240 5e 01 1c be 20 56 b0 bd 73 77 b2 bd fe cf d9 bd
       -0.15234897 -0.08610177 -0.087141894 -0.106353745
000250 07 c8 05 be fa 97 03 be 8a 83 d0 bc dd 66 e3 bd
       -0.13064586 -0.12850943 -0.025453348 -0.11103604
000260 ec d7 a3 bc f9 ac 28 be 51 8e 7c bd 56 96 cf bd
       -0.02000042 -0.16472234 -0.06165916 -0.10136096
000270 4b 02 b5 bd 15 76 ec 3b 11 45 bc bd cc 73 97 bd
       -0.08838328 0.007216225 -0.09192861 -0.073951334
000280 14 c1 eb bd 2b 0f 14 be f0 9b 9f bd 7a 49 de bc
       -0.11511436 -0.14458911 -0.077934146 -0.027134646
000290 7d 18 93 3d 71 eb cd bd ff ca 0b bd 0d 42 d2 bc
       0.07182405 -0.100546725 -0.03412914 -0.025666261
0002a0 71 4c 2c be aa 75 6b bd 1c 01 b0 bb 5a bc 1d bd
       -0.16826035 -0.05748526 -0.005371226 -0.038509704
0002b0 f5 c7 91 3c 1c 12 5f bd f5 51 d4 3c df ba 45 bd
       0.017795542 -0.05446063 0.025917986 -0.048273917
0002c0 43 b7 45 be 14 99 e8 bd 8d 88 7c bb 40 95 30 be
       -0.1930819 -0.11357322 -0.003853354 -0.17244434
0002d0 ba 7b 93 bd 35 b8 c6 bd f3 e9 8d bd e1 6b 1e be
       -0.07201333 -0.097031035 -0.06929388 -0.1547084
0002e0 19 8d bd bd 30 b6 43 be 98 7c a2 bc f4 48 b7 bd
       -0.09255428 -0.19112468 -0.019834802 -0.089494616
0002f0 f9 c4 53 bd 66 fc ea bd a4 c6 9a bb f2 47 9a bd
       -0.05170152 -0.114739224 -0.004723387 -0.07533254
000300 ef 21 23 be a3 46 c1 bd 45 9e 22 bd 2f 8c 6e 3c
       -0.15930913 -0.09437301 -0.03970172 0.01455979
000310 ec af d3 3c 25 cc 33 bd 24 ac 32 be c8 bc 88 bc
       0.025840722 -0.04389586 -0.17448479 -0.01669158
000320 6d 85 b2 bd df 8d dd bd 5f 84 0f be a5 33 e1 bd
       -0.08716855 -0.108180754 -0.1401534 -0.109961785
000330 e1 52 45 3b 19 dd 89 bc f7 99 5b bd 41 87 ac bd
       0.0030109214 -0.01682906 -0.05361363 -0.08424235
000340 2c 9b 06 3e 6a f0 df 3d 01 97 0d be f4 a1 b4 3d
       0.13145131 0.10934527 -0.13827135 0.088199526
000350 17 7d 33 be 33 b9 b4 bd 72 69 5a bc 0d 1a 81 bd
       -0.17528187 -0.088243864 -0.013330804 -0.06303797
000360 fe 92 a7 bd 6e 51 95 bd e7 fc 58 bc 1e 22 f7 bd
       -0.081823334 -0.07290922 -0.01324389 -0.12067054
000370 81 17 a7 bd 6e f0 1f be ce 70 11 be 76 02 2a be
       -0.0815878 -0.1561906 -0.14203188 -0.16602501
000380 c3 f2 b8 bd e6 11 aa bd 65 9f 3b be 70 ca 3d bc
       -0.09030678 -0.08304195 -0.18322523 -0.011583909
000390 b2 d8 44 be 23 d9 0b be 2b 18 02 be c8 f8 f1 ba
       -0.19223288 -0.1365705 -0.12704532 -0.0018460983
0003a0 00 78 0c bd 2c 89 68 bd 15 32 1e bd 0a ee a9 bb
       -0.03429413 -0.056771442 -0.03862198 -0.005185847
0003b0 bf ab cc bd ba b7 3a be 87 98 4e bd 15 b0 9e 3c
       -0.099936955 -0.18234149 -0.05043843 0.019371072
0003c0 a7 9d 58 bd bb 02 1c bc 68 e6 5f 3c d5 73 d5 bd
       -0.052884724 -0.009522135 0.013665773 -0.10422484
0003d0 80 86 11 bd be 5e d7 bd 88 3f b7 3b 81 d2 8a bb
       -0.03552866 -0.105161175 0.0055922903 -0.00423652
0003e0 8a e8 89 bd 12 53 3e 3d e4 3b 19 bd a9 81 d9 bd
       -0.067338064 0.04646594 -0.03741063 -0.10620434
0003f0 06 47 b8 bd 98 59 26 bd 5c 71 ea bd 20 a9 b1 bd
       -0.08997922 -0.040612787 -0.11447403 -0.08674836

fc2.weight f4 [64, 256]
000000 0a 6a 0a 3e df 83 7c 3d 86 3c f9 3d 2e 77 b7 3d
       0.13517013 0.0616492 0.12169747 0.089582786
000010 19 b5 f4 3d 77 45 0c 3f 78 c4 83 3e 35 ba dd 3d
       0.11948604 0.54793495 0.2573583 0.10826532
000020 8c 48 29 3e ce 18 96 3e 78 c1 9a 3d 20 9e cf 3d
       0.1653158 0.293158 0.075564325 0.10137582
000030 70 7f cf 3e 69 ad 06 3e 5e 33 4d 3d e4 09 c7 3d
       0.40526915 0.13152088 0.050097816 0.09718683
000040 5e e2 7a 3d 80 91 02 3e 65 72 26 3f d1 02 1d 3f
       0.061251037 0.12750816 0.650183 0.6133242
000050 9a d1 d6 3d 03 32 66 3d 71 cc c1 3d 19 36 17 3e
       0.10489197 0.05620004 0.09462822 0.1476673
000060 3f 6d 0d 3e e5 50 a7 3d a4 e3 8a bf c7 ad 07 3e
       0.13811205 0.08169726 -1.085072 0.13249885
000070 7a 20 e9 3e 27 85 13 3e 31 bd 94 3d c9 e2 68 3e
       0.4553259 0.14406262 0.07262648 0.22742762
000080 32 59 a2 3d 26 50 ef 3d 6d 4d 0f 3e f1 13 af 3d
       0.07927169 0.11685209 0.1399438 0.085487254
000090 a3 8f f9 3d 7d 11 85 3d 99 46 c8 3d 20 14 0e 3f
       0.121856 0.06497476 0.097790904 0.5549946
0000a0 80 88 06 3e fc 60 04 3e f7 8e 03 3e 15 74 b8 3c
       0.13138008 0.12927622 0.12847506 0.02251629
0000b0 c4 40 bd 3e 39 1b ec 3d a1 36 a0 3d 29 16 00 3e
       0.36963475 0.1152863 0.0782292 0.12508453
0000c0 33 e6 02 3e fa 79 06 3e 41 c3 06 3e 0e e5 09 3e
       0.12783127 0.13132468 0.13160421 0.13466284
0000d0 81 74 0f 3e a8 83 06 3e 3c a2 a3 3d c0 91 03 3d
       0.14009286 0.1313616 0.07989928 0.03212142
0000e0 8d a7 2c 3d d0 79 0b 3e 21 ec 03 3f 81 eb 15 3e
       0.042151976 0.13620687 0.5153218 0.14640619
0000f0 4d a2 b5 3e bb ae 89 bf 2d 46 ff 3c a9 32 a8 3d
       0.35475388 -1.0756449 0.031161392 0.08212788
000100 26 56 e1 3d 9d 3b 1b 3f 25 39 f8 3d 7a 50 52 3f
       0.1100276 0.6063784 0.121202745 0.8215405
000110 8b d8 00 3e e6 46 ff 3d fb 33 c6 3d bd 39 b6 3d
       0.12582605 0.12464695 0.09677883 0.088977315
000120 fd d4 29 3e f1 37 a8 3d e1 83 ff 3e 7d d0 b2 3d
       0.16585155 0.08213795 0.49905303 0.08731172
000130 70 42 04 3f c0 ec 24 3d 02 e5 da 3d 8b e5 13 3f
       0.51663876 0.040264845 0.10688211 0.5777213
000140 3f 0e 04 3d 70 83 55 3f 30 59 55 3d c1 49 a7 3d
       0.03224015 0.8340368 0.05208701 0.08168364
000150 f0 54 3c 3f 46 01 1f 3d e8 bc 82 3e d2 46 b2 3e
       0.73567104 0.038819574 0.2553475 0.34819657
000160 78 2e cd 3d 1d 96 cc 3e 65 1b f3 3d 8f 74 c4 3d
       0.10018629 0.39958277 0.118704595 0.09592544
000170 05 75 fa 3d e2 12 05 3e 78 94 b3 3d 4f d4 68 3e
       0.12229351 0.12995484 0.087685525 0.2273724
000180 cd 5a c1 3d e7 8b 1c 3e d4 3b 36 3f 02 27 13 3f
       0.09441147 0.15287744 0.7118504 0.57481396
000190 74 ad 1b 3e fc 6b 99 3d 70 38 f8 3d f1 98 07 3f
       0.15202886 0.074912995 0.121201396 0.52967745
0001a0 c8 bd c9 3e c6 3c c3 3d aa 48 38 3d bb 91 1c 3f
       0.39402604 0.09533076 0.044991173 0.6115987
0001b0 8c b5 29 3d 20 85 d9 3d 62 56 09 3f a2 34 a4 3d
       0.041432902 0.10621095 0.53647435 0.080178514
0001c0 28 85 3a 3d a6 3a 9d 3d d3 2c 95 3d 6a 16 3d 3d
       0.045537144 0.07677202 0.0728394 0.046163954
0001d0 4e 6a e3 3d f5 d6 fc 3d c3 5b 13 3f 9b b1 72 3d
       0.111042604 0.12345687 0.5756189 0.05925141
0001e0 96 c9 05 3e 36 35 18 3e 35 91 0b 3f 1c 61 55 3f
       0.1306518 0.14864048 0.54518443 0.833513
0001f0 4c 25 1e 3f 11 ad e0 3d fb 12 0b 3f 35 15 8f 3d
       0.6177566 0.1097051 0.54325837 0.06986467
000200 08 4a 6f 3f 2d 32 f9 3d 19 53 db 3e f5 e0 38 3e
       0.9347234 0.121677734 0.42836836 0.18054564
000210 5f 4e db 3d e6 f7 25 3f ae 56 86 3d b3 8a f0 3d
       0.107083075 0.6483139 0.065595016 0.11745205
000220 16 03 b5 3d 4d 3f 07 3e 83 f2 82 3d 09 f7 82 3d
       0.08838479 0.13207741 0.06393912 0.063947745
000230 ea 29 97 3d 55 8c 73 3d 2e e5 6d 3d ba 4f db 3d
       0.07381041 0.059460003 0.05807989 0.10708566
000240 75 ae 92 3d 5d 45 1c 3d 66 71 1a 3e 03 09 70 3e
       0.07162181 0.038152087 0.1508232 0.23440938
000250 5d f4 f4 3d ce ad 00 3e 07 1a ec 3d 60 95 04 3f
       0.11960671 0.12566301 0.11528402 0.5179043
000260 65 04 5d 3d aa a2 bb 3d 0e 6b 22 3e cb aa 9b 3e
       0.05395927 0.09161885 0.1586115 0.30403742
000270 04 cf 43 3e a8 8f 60 3f c4 ee 3c 3e ee 31 0a 3e
       0.19121939 0.877192 0.18450457 0.13495609
000280 40 e2 dd 3d ed c4 06 3f 84 3d 79 3f 04 0e 0e 3d
       0.108341694 0.52644235 0.9735949 0.034681335
000290 f6 27 04 3f 5a a6 17 3e 8d cf 15 3e 27 be 13 3e
       0.51623476 0.14809552 0.14629956 0.14428006
0002a0 be 1b 97 3e c4 79 c9 3c ea fc ab 3d 98 ad ff 3d
       0.29513353 0.024594195 0.08397849 0.12484282
0002b0 85 79 86 3d a6 0f bc 3d b7 43 ee 3d 86 1d ae 3d
       0.06566147 0.09182672 0.11634009 0.08501725
0002c0 c1 f8 20 3f ca 3d 9d 3e b4 10 ca 3d c5 90 0a 3f
       0.6287957 0.30711204 0.09866467 0.5412715
0002d0 9d 3b 9a 3d 88 10 3a 3e 60 17 06 3e ef cb 40 3f
       0.075309016 0.18170369 0.13094854 0.7531118
0002e0 9d 36 d3 3d dd 96 aa 3e 9c f8 60 3d ac 34 20 3e
       0.10313151 0.33318225 0.054924592 0.15645093
0002f0 8f f0 40 3d d1 f6 83 3e b7 51 e8 3d d2 30 d2 3d
       0.047104415 0.25774243 0.11343711 0.10263218
000300 1e 5c 93 3e bb 2e 69 3d 6b c2 1b 3e 81 61 0d 3e
       0.28781217 0.05692933 0.15210883 0.13806726
000310 6d c9 97 3d 8b b6 b6 3d 0e ff a6 3e 22 74 ce 3d
       0.07411466 0.08921536 0.32616466 0.10080744
000320 db 76 98 3d 89 26 1b 3f be 42 91 3e 6d 8e c4 3d
       0.07444545 0.60605675 0.28371233 0.09597478
000330 01 bf 04 3e cd a9 0c 3e b8 d7 1c 3e 5a 82 99 3d
       0.12963487 0.13736649 0.15316665 0.07495566
000340 49 fa f7 3e b6 68 10 3f e6 a2 86 3e 3a 15 26 3f
       0.4843314 0.56409776 0.26296157 0.6487614
000350 1e 88 87 3e 9d 34 9c 3d c0 4c e7 3d 0f 30 03 3e
       0.26471037 0.07627223 0.11293936 0.12811302
000360 e8 45 8e 3d 9c 3b 18 3e 9d cc 15 3e f3 b1 13 3e
       0.06946927 0.14866489 0.14628835 0.14423351
000370 12 15 20 3f 3b e5 81 3e 56 0d f0 3e 03 16 12 3f
       0.6253215 0.253702 0.46885175 0.5706484
000380 44 5b c0 3d 44 51 c2 3c a0 37 a6 3e fe 78 44 3d
       0.093924075 0.023720391 0.32464314 0.04796695
000390 f5 e9 a5 3e 5f 00 98 3e 70 94 04 3f f1 9c ad 3d
       0.32405058 0.29687783 0.51789 0.084772
0003a0 7c ac b3 3d 30 ce 20 3d 4c 7b 40 3f b6 ad e1 3d
       0.08773133 0.039259136 0.75188136 0.11019461
0003b0 e3 18 99 3e 6c 06 16 3f 9e 34 a4 3d 54 95 62 3d
       0.299018 0.5860355 0.080178484 0.05531819
0003c0 e0 b3 0c 3e 05 5b b2 3c b5 32 2c 3f 2c 5f 11 3f
       0.13740492 0.021771917 0.6726487 0.56785846
0003d0 7d 63 e0 3d 42 45 dc 3d 1e 4a f6 3e 27 aa 03 3e
       0.10956476 0.107553974 0.48103422 0.12857877
0003e0 b2 5e 0b 3e ee e2 18 3f f2 12 b3 3d 88 f3 53 3f
       0.13610342 0.5972127 0.08743848 0.82793474
0003f0 b9 fa 6b 3d 68 1d 0a 3f f8 6e 29 3f 1a 7c cf 3d
       0.057612155 0.5395112 0.6618495 0.10131092

fc2.bias f4 [64]
000000 18 69 53 bd 72 b6 1e 3d e5 b8 fb bc 56 ca 88 bd
       -0.051613897 0.038748212 -0.030727813 -0.066792175
000010 04 d9 69 bd aa 08 88 3c 79 5f 9b 3e 2a 86 c0 3c
       -0.057091728 0.016605694 0.30346277 0.023501474
000020 94 4d 8d bd fb d0 4d 3c 35 c7 d6 bd 8d b7 4a 3d
       -0.068995625 0.012562032 -0.104872145 0.049491454
000030 66 1f a3 bd 6c ea 83 3d 5a 23 bb bd 35 0e 09 3e
       -0.07964973 0.06441197 -0.09137602 0.13384326
000040 f1 f6 03 3e e6 50 50 3c 33 3c f4 bb fb 3e 34 3e
       0.1288717 0.0127146 -0.0074534654 0.1760215
000050 49 30 82 3e ce 53 d6 3c 4d 19 9c bd 7b d2 24 3d
       0.25427464 0.026163008 -0.07622013 0.040239792
000060 3a e6 22 3d 6d 1b 50 bd 09 61 8b 3d af ea 81 be
       0.039770342 -0.050807405 0.06805617 -0.25374362
000070 99 02 e5 3d f9 83 41 3d 7a f3 ba bd e4 42 5e bd
       0.11182136 0.047245 -0.09128471 -0.05426301
000080 7b 7a 3f bd d5 2f e5 bd c0 4f fc bc 52 c2 23 bc
       -0.046747666 -0.11190764 -0.030799747 -0.00999506
000090 c5 09 3d 3e ec 90 2f bd 9b 64 f8 3d 5e 3e 28 bd
       0.18460758 -0.042862818 0.12128564 -0.041075103
0000a0 b7 62 eb 3c 1c 65 af bc c6 17 3e 3c 5b 2c 07 3d
       0.028733594 -0.021410517 0.011602348 0.033001285
0000b0 5e 26 96 3d aa 57 46 3e 7b 88 c7 3d 66 58 37 3d
       0.07331537 0.19369379 0.097428285 0.044762038
0000c0 d4 ac 82 bd 8b e5 08 3d ac 20 87 bd 54 a8 11 3d
       -0.063806206 0.033422034 -0.065980285 0.03556092
0000d0 a8 df 1d bd 47 87 ca 3c 97 6e 15 bd 3b b0 c0 3c
       -0.038543373 0.024722708 -0.03648242 0.023521533
0000e0 b4 4d cb 3c 24 dc d9 3d 0e 04 7d 3d c4 95 27 bb
       0.024817325 0.106376916 0.061771445 -0.0025571445
0000f0 d8 47 39 3d 58 a7 47 3e 8e c0 56 bd 79 95 48 3e
       0.04523453 0.1949743 -0.05242973 0.1958827

fc3.weight f4 [1, 64]
000000 c2 42 99 3e 86 fd c6 bd 26 5c 32 bd 50 58 9e 3e
       0.29933745 -0.097163245 -0.04354491 0.30926752
000010 b3 dc 8a bc 24 ac 61 3e 12 be 5f 3f f8 56 61 3e
       -0.01695094 0.22038323 0.873994 0.22005832
000020 ea 0f 0a bb d2 06 9b 3e d5 6c 4d 3e ba ba e8 be
       -0.0021066614 0.3027864 0.20061047 -0.4545496
000030 c6 bf aa bd 40 32 4b bf 09 a9 54 3e 4a 5f 98 be
       -0.08337359 -0.7937355 0.20767607 -0.297602
000040 35 22 6f bf d4 6f 71 3e 85 23 62 3e 22 b9 85 bf
       -0.9341157 0.23577815 0.22083862 -1.0447123
000050 88 18 77 3f 11 3a 87 3e cc 23 4d 3e 26 bf a4 ba
       0.96521807 0.2641149 0.20033187 -0.0012569174
000060 2c 5e 81 bd 64 e5 c4 bc 00 42 1f bf 41 c3 14 3f
       -0.0631679 -0.024035163 -0.62210083 0.58110434
000070 f0 e8 5b 3f 7b c4 99 3e 53 e3 30 bd 48 2d 88 3e
       0.8590231 0.30032715 -0.043185543 0.26597047
000080 bf aa 86 3e 0a 17 70 3e 9d 6d 6c 3e e7 e9 90 3e
       0.26302144 0.23446289 0.23088689 0.28303453
000090 16 a2 b3 be 78 1e 8e 3e b4 0d 3d bf 0d 74 91 3e
       -0.350846 0.2775762 -0.73849034 0.28408852
0000a0 ff ea f0 be b8 6b 7c 3e 49 e5 df bc af a3 8f 3e
       -0.47054288 0.24650466 -0.027331011 0.28054568
0000b0 1b f1 21 bf a4 00 8a bf ae 38 74 bf 9a ff 8d 3e
       -0.6325852 -1.0781446 -0.95398986 0.2773407
0000c0 8f b3 86 3e 8e a0 9a 3e 64 9c 97 3e fd 78 8a 3e
       0.26308867 0.30200619 0.29611504 0.27045432
0000d0 77 5d 95 3e cb 6e a4 bd 8a 10 5a 3e 92 10 8c 3e
       0.2917287 -0.080289446 0.21295372 0.27356392
0000e0 64 96 82 3e c0 5e 89 bf d3 56 85 bf a8 9a d2 bd
       0.25505364 -1.073204 -1.0417122 -0.102834046
0000f0 c2 c9 45 be e3 bc 83 bf 1c e4 bc bd fe a4 78 bf
       -0.19315246 -1.0292019 -0.09223196 -0.9712676
