models/best_bert_featurizer.pth (torch, 856266 bytes, 5 tensors)

fc1.weight f4 [256, 768]
0	0xbc72adcb	-0.014811943
1	0x3d10b2cc	0.035326764
2	0x3dab3b20	0.083608866
3	0xbd244214	-0.04010208
4	0x3ddf0688	0.108899176
5	0xbdf0717a	-0.11740394
6	0xbcad4c79	-0.021154629
7	0xbc8268f0	-0.015919179
8	0xbcb05aa6	-0.0215276
9	0xbd86eff2	-0.06588735
10	0xbd16bbf4	-0.03680034
11	0x3d81f018	0.063446224
12	0x3cc5fff6	0.024169903
13	0xbc6af8cf	-0.014341547
14	0x3cb51cc7	0.022108449
15	0x3d639aa3	0.055567395
16	0x3aef1eea	0.0018243466
17	0x3d3aec8a	0.045635737
18	0x3d48fbb9	0.049068186
19	0xbd342166	-0.043977164
20	0x3ad8e7fc	0.0016548629
21	0x3c70f94b	0.014707874
22	0x3d6aeb97	0.057353582
23	0x3c34cafd	0.011034724
24	0xbe19e896	-0.1503013
25	0x3d040b36	0.032237254
26	0xbc65b00d	-0.014019025
27	0xbd18f33b	-0.037341338
28	0xbbc761a4	-0.0060846377
29	0x3d83b947	0.06431823
30	0xbcc18f21	-0.02362782
31	0xbd2c49bf	-0.042062517
32	0x3b97d1fa	0.0046331855
33	0xbc3a6193	-0.011375803
34	0xbe7cf2f9	-0.24702062
35	0xbd3cc283	-0.04608394
36	0xbc9ed6bf	-0.019389508
37	0xbdcf679e	-0.10127185
38	0xbcb212a3	-0.021737402
39	0xbc96a352	-0.018388424
40	0x3c805ea4	0.015670128
41	0x3c02d600	0.007985592
42	0x3ccbc9ed	0.02487656
43	0x3c027fae	0.0079650115
44	0x3cafc107	0.021454347
45	0x3c320f72	0.01086794
46	0x3c49f79d	0.012327102
47	0x3814e0d2	3.549533e-05
48	0xbcffef33	-0.031241989
49	0xbc5e31af	-0.01356165
50	0x3da55eac	0.08074698
51	0x3e1022cb	0.14075772
52	0xbd6f4149	-0.05841187
53	0x3c83f64d	0.016108656
54	0x3e015953	0.1263173
55	0x3cec7490	0.028864175
56	0xbd108afe	-0.035288803
57	0x3d7814da	0.06056676
58	0x3ccc493b	0.024937263
59	0xbd64c00f	-0.055847224
60	0x3dc18bb2	0.09450473
61	0xbc834bbe	-0.016027328
62	0xbe9d6b9d	-0.30746165
63	0xbc1a52b6	-0.009419134
64	0x3bd772f6	0.0065749837
65	0x3eaf03f8	0.34182715
66	0xbd0788c3	-0.03308941
67	0xbca63d08	-0.020292774
68	0x3d5b8d1e	0.053601377
69	0x3c85c4a4	0.016329117
70	0xbd550a2a	-0.052011646
71	0x3d21dded	0.039518286
72	0xbb1d7933	-0.002402854
73	0xbd1773c7	-0.03697565
74	0x3d11dab0	0.035608947
75	0x3ca95296	0.020669263
76	0x3db7284e	0.089432344
77	0xbbc7644f	-0.0060849558
78	0xbd4b300b	-0.049606364
79	0xbdad8055	-0.08471743
80	0xbdf8fd5f	-0.12157702
81	0xbdf8a9bb	-0.121417485
82	0xbc562dcc	-0.013072442
83	0xbdb1edac	-0.086879104
84	0xbdefcad2	-0.11708607
85	0x3d50e82c	0.051002666
86	0xbc771721	-0.015081198
87	0xbb01ad6e	-0.001978721
88	0x3d8f7ee8	0.07006627
89	0xbdf427e6	-0.119216725
90	0xbe806117	-0.25074074
91	0xbc68ac89	-0.014201292
92	0x3d40ef0b	0.04710297
93	0x3c55611c	0.013023641
94	0x3cff64d2	0.031176005
95	0x3bd3e2e0	0.0064662546
96	0xbc45b4f6	-0.01206707
97	0x3c4be236	0.01244407
98	0x3d48d920	0.04903519
99	0xbd6c3c10	-0.057674468
100	0xbb8639cb	-0.004096245
101	0xbcb57898	-0.02215223
102	0x3e3da0e8	0.18518412
103	0x3e030068	0.12793124
104	0xbe6908cd	-0.22757263
105	0x3d276fa4	0.040877953
106	0xbd782241	-0.060579542
107	0x3d8bc56f	0.06824767
108	0x3dacd2be	0.084386334
109	0x3d6080bd	0.054810274
110	0xbd5e5840	-0.05428338
111	0x3e962347	0.2932379
112	0xbdf8ed7c	-0.121546715
113	0x3e167c03	0.14695744
114	0xbc8d4368	-0.017244056
115	0xbba225f9	-0.0049483743
116	0x3e0d1697	0.13778149
117	0x3ccd8c75	0.02509139
118	0xbd090d01	-0.033459667
119	0x3c05327d	0.008129713
120	0x3ceb2574	0.028704382
121	0xbc2bd8d6	-0.010488709
122	0x3d938b21	0.07204271
123	0x3c9f6e5c	0.019461803
124	0xbdd2f038	-0.10299724
125	0xbd2134f7	-0.03935715
126	0xbd195fda	-0.037444927
127	0x3d5423e5	0.051792044
128	0xbd9bc570	-0.076060176
129	0x3e550e9d	0.20806356
130	0x3ceb8ccc	0.02875366
131	0x3dbb3a6f	0.09142005
132	0xbc881210	-0.016610175
133	0xbddd6105	-0.10809521
134	0x3d8a437a	0.067511514
135	0xbcfd6322	-0.03093106
136	0x3c59c67d	0.013291952
137	0xbddfbf1b	-0.10925122
138	0x3b59f1a0	0.0033255592
139	0x3ac0738d	0.0014682874
140	0xbce1bd85	-0.02755619
141	0x3d4fc000	0.050720215
142	0x3ccfa2e2	0.025346223
143	0x3d170023	0.036865365
144	0xbbd766fb	-0.0065735555
145	0xbd582d0d	-0.05277734
146	0x3dc97b6f	0.09837996
147	0xbc236a59	-0.009974086
148	0xbcc6c1ca	-0.024262328
149	0xbe45519f	-0.19269417
150	0xba5de0b1	-0.00084639626
151	0xbce68bb1	-0.028142782
152	0xbca18ba1	-0.0197199
153	0xbd9ae654	-0.07563463
154	0x3d3f11a9	0.0466477
155	0x3e185883	0.14877515
156	0x3e66071f	0.22463654
157	0x3d079ec0	0.03311038
158	0xbe5c1d51	-0.21495558
159	0xbdc6bf0a	-0.097044066
160	0xbd270eff	-0.040785786
161	0xbda85c04	-0.082206756
162	0x3d6f5d56	0.05843862
163	0xbc08fcf6	-0.008361092
164	0xbbb69045	-0.0055713975
165	0xbd9dda29	-0.077076264
166	0xbcfa3a51	-0.030545386
167	0xbd7d0b70	-0.061778486
168	0xbcb4f4a9	-0.02208932
169	0x3ce59d20	0.028029025
170	0xbdca9248	-0.09891182
171	0xbd3f1ac3	-0.04665638
172	0x3d704304	0.05865766
173	0x3b21a05a	0.0024662227
174	0x3a2c8086	0.0006580431
175	0x3e3e33ef	0.18574499
176	0xbcefccea	-0.029272515
177	0x3cd8f71f	0.026485024
178	0xbd700f07	-0.05860808
179	0x3bec5277	0.007211979
180	0x3c9fa8d0	0.019489676
181	0x3baefa4e	0.0053398972
182	0x3bb2327d	0.0054381476
183	0x3de9b192	0.11410822
184	0x3d295c12	0.04134757
185	0x3c8ea75f	0.017413793
186	0x3d943576	0.07236759
187	0xbc0dbf46	-0.00865156
188	0x3ea90d1f	0.33017823
189	0xbde3f423	-0.1113055
190	0x3c9da30c	0.019242786
191	0x3cbb21cc	0.022843264
192	0xbe1684b1	-0.14699055
193	0xbbf26dc3	-0.0073983385
194	0xbd375141	-0.044755224
195	0xbc5f38a4	-0.013624344
196	0xbc2443df	-0.010025947
197	0x3c955d8b	0.018233081
198	0x390d91fc	0.00013501191
199	0xbafdbe90	-0.001935916
200	0x3d49e1a6	0.04928746
201	0x3d11cbc2	0.03559471
202	0x3d14b16d	0.03630202
203	0xbbd990c0	-0.00663957
204	0xbd3ce2ea	-0.04611484
205	0x3d7a0e6e	0.061048917
206	0xbca19a0f	-0.019726781
207	0xbd8f0319	-0.06983013
208	0x3d9439a1	0.07237554
209	0xbe34963b	-0.17635433
210	0xbc2c1fa1	-0.010505588
211	0x3e0c9af7	0.1373099
212	0x3e1ea280	0.15491676
213	0xbd9945f5	-0.07484046
214	0xbe4906af	-0.19631456
215	0xbdea90de	-0.114534125
216	0xbe293ba4	-0.16526657
217	0xbc9280d5	-0.017883698
218	0xbd18b8dc	-0.03728567
219	0xbdbe5529	-0.09293587
220	0x3d36ce19	0.044630144
221	0xbc8f70f2	-0.017509911
222	0x3c1a03f7	0.009400359
223	0x3d7f1a90	0.06228119
224	0x3d62cbb2	0.05537004
225	0x3cd0979e	0.025462922
226	0x3dea3ebc	0.11437747
227	0xbd1b8c4c	-0.037975594
228	0x3d6aed9b	0.057355504
229	0x3dd42b81	0.1035986
230	0x3da739d9	0.081653304
231	0xbe982c44	-0.29721272
232	0x3b380c16	0.0028083376
233	0x3cca910f	0.024727372
234	0xbd9deff7	-0.07711785
235	0xbe69cbc4	-0.22831637
236	0xbc97299a	-0.018452454
237	0x3becb4c1	0.007223696
238	0xbccf1381	-0.025277855
239	0xbdbb8ab5	-0.09157316
240	0xbcd987ea	-0.026554067
241	0x3d1b35fa	0.037893273
242	0xbda2b5c1	-0.07944823
243	0x3c93cf25	0.01804311
244	0xbc47b71d	-0.012189654
245	0x3d19b30c	0.037524268
246	0x3cec6446	0.028856408
247	0x3b6026d1	0.0034202824
248	0xbd24abc2	-0.040202864
249	0x3d63b9be	0.05559706
250	0xbd1903b4	-0.037357047
251	0x3e0e38ac	0.13888806
252	0x3d71b2aa	0.059008278
253	0xbbc900ea	-0.006134142
254	0xbde29e8f	-0.11065399
255	0x3d9b044a	0.075691774

fc1.bias f4 [256]
0	0xbcc05e06	-0.023482334
1	0x3a45a758	0.000753989
2	0x3cc907cf	0.024539856
3	0x3ca773b7	0.02044092
4	0xbd1b0783	-0.03784896
5	0xbcfda66e	-0.030963149
6	0xbc8afb9e	-0.016965684
7	0x3d051170	0.032487333
8	0x3c186bd7	0.009303055
9	0xbcfca1f0	-0.030838937
10	0xbd40887a	-0.047005154
11	0xbb380542	-0.0028079306
12	0xbce26c77	-0.02763961
13	0x3c4fc4a7	0.012681163
14	0x3c92c5b9	0.017916547
15	0xbcf511c5	-0.0299157
16	0xbc8e8e85	-0.017401943
17	0xbd1a72f5	-0.037707288
18	0xbb79df8d	-0.0038127631
19	0xbb7b7a61	-0.0038372504
20	0xbd01218c	-0.031526133
21	0xbc5504bf	-0.01300162
22	0x3cd41ee4	0.025893636
23	0x3ad70e39	0.0016407437
24	0x3ce64ece	0.028113749
25	0x3c1f656f	0.0097287735
26	0x3ce3caa2	0.027806584
27	0xbc3800e5	-0.011230682
28	0xbbca71ef	-0.0061781327
29	0xbd22d76b	-0.03975622
30	0xbc33b38b	-0.010968099
31	0x3c766576	0.015038839
32	0x3bd41e6a	0.006473352
33	0x3b2f09b5	0.0026708667
34	0x3b85e60a	0.0040862607
35	0x3c768d13	0.015048283
36	0xbc67a18d	-0.014137638
37	0xbd192580	-0.03738928
38	0x3c7cd9e3	0.015432808
39	0xbd04d225	-0.032426972
40	0xbcec2988	-0.028828397
41	0x3c4d97cf	0.012548401
42	0x3ca2df5a	0.019881893
43	0x3cab14bb	0.020883908
44	0xbc2cf4b3	-0.010556388
45	0xbd0d7df1	-0.034543935
46	0xbcf48d29	-0.029852467
47	0xbcf10127	-0.029419495
48	0xbc2f98da	-0.010717595
49	0x3ca8aef6	0.02059124
50	0xbb07ca1e	-0.0020719836
51	0xbcb0d08d	-0.02158382
52	0x3cd69548	0.02619423
53	0x3cd0adba	0.025473464
54	0x3c9a5678	0.01884006
55	0x3c31a2f0	0.01084207
56	0x3cb321c9	0.021866696
57	0xbcafd3ca	-0.021463294
58	0xbc9b9257	-0.018990679
59	0xbc2234df	-0.009900301
60	0x3c3ac7eb	0.011400203
61	0x3c4fc726	0.012681758
62	0x3cbbc2f4	0.02292011
63	0xbd00538f	-0.031329688
64	0xbcf6d6e5	-0.030131767
65	0xbc9a0b50	-0.018804222
66	0xbd045f39	-0.032317374
67	0x3b539b80	0.003228873
68	0x3c891be5	0.016736934
69	0x3ca9699e	0.020680245
70	0xbcbf7f7b	-0.023376217
71	0x3caa200b	0.020767232
72	0xbd10b7aa	-0.035331406
73	0xbcfdfc17	-0.031003995
74	0x3ac0af09	0.0014700602
75	0xbc237d20	-0.009978563
76	0xbcb30439	-0.0218526
77	0xbc292171	-0.010322914
78	0x3c57a8f3	0.013162839
79	0xbc8afc19	-0.016965913
80	0x3cce5f3e	0.0251919
81	0x3bbc2075	0.005741174
82	0xbd09f5a0	-0.033681512
83	0xbbe32cad	-0.006932816
84	0x3bc7d272	0.006098085
85	0x3baee5a8	0.0053374358
86	0xbc4e0fb0	-0.012576982
87	0x3bb06f56	0.005384366
88	0x3c3b75a9	0.011441627
89	0xbd2a9d06	-0.041653655
90	0x3aef547c	0.0018259431
91	0x3be7c4c5	0.0070730173
92	0xbd2fd9c0	-0.042932272
93	0xbd1769ef	-0.03696626
94	0xbd4fedd7	-0.05076393
95	0xbc46d317	-0.012135289
96	0x3cd2166c	0.025645457
97	0xbb7240a0	-0.003696479
98	0x3c68e509	0.0142147625
99	0xbd18bb61	-0.037288073
100	0x3ad39e5f	0.0016145221
101	0xbd3d737b	-0.04625271
102	0xbcc4645a	-0.023973633
103	0xbc7cf7c1	-0.0154399285
104	0x3bbe7190	0.0058118775
105	0xbd1aa3ff	-0.037754055
106	0xbb73cf04	-0.0037202248
107	0xbc321439	-0.010869079
108	0xbcce4aba	-0.025182117
109	0x3caa7ed0	0.020812422
110	0xbb21eb9f	-0.0024707092
111	0x3caeb3e8	0.02132602
112	0xbd34e2bf	-0.044161554
113	0x3cd51a7b	0.026013603
114	0xbc9e637b	-0.019334545
115	0xbc5166e5	-0.01278088
116	0x3a513f11	0.0007982115
117	0xbcc48c6f	-0.023992745
118	0x3c3278be	0.010893045
119	0x3a1d8127	0.000600832
120	0xbcb1e7f1	-0.021717044
121	0xbd15abe4	-0.03654088
122	0x3bdbcf9c	0.0067080986
123	0x3c862c46	0.016378533
124	0x3a99bc67	0.0011729122
125	0x3ca2726c	0.019829951
126	0xbd17951c	-0.037007436
127	0xbc38cb5a	-0.011278952
128	0x3c583657	0.013196549
129	0xbc77e890	-0.015131131
130	0x3ca9ec42	0.02074254
131	0xbd20b8ba	-0.03923867
132	0x3c975f9d	0.01847821
133	0xbd1695c5	-0.036763925
134	0x39076365	0.0001291163
135	0x3ca35dc5	0.019942174
136	0xbd16d8d6	-0.036827885
137	0xbce7a208	-0.028275505
138	0xbce29e70	-0.02766344
139	0x3c6db999	0.014509582
140	0x3c1fc15b	0.009750689
141	0xbd092f75	-0.033492524
142	0xbd3b695a	-0.045754768
143	0xbd00e92c	-0.03147237
144	0x3cc8fa9f	0.024533568
145	0xbbfc2c17	-0.0076956856
146	0xbd1f14db	-0.03883825
147	0x37c759dc	2.3764493e-05
148	0xbca75182	-0.020424608
149	0x3c817249	0.015801566
150	0x3cbffe10	0.023436576
151	0x3bb13240	0.0054076016
152	0x3c544d06	0.012957817
153	0x3b8c1407	0.0042748484
154	0x3c7cac4d	0.015421939
155	0x3caaba63	0.02084083
156	0xbd11ff00	-0.035643578
157	0xbd2c6e69	-0.042097483
158	0xbd060e01	-0.0327282
159	0x3c0f6c72	0.008753883
160	0x3aebe362	0.0017996843
161	0x3c98f3d4	0.018670954
162	0xbcbde8bb	-0.023182264
163	0xbd0e8d93	-0.034802984
164	0x3c51ffdc	0.012817349
165	0xbcb3ea30	-0.021962255
166	0xbc5d3f7d	-0.013503906
167	0xbd350dbf	-0.044202562
168	0xbcc3fde6	-0.02392478
169	0x3c42f9ca	0.011900375
170	0xbc0bc6f8	-0.008531325
171	0x3cbe9112	0.023262534
172	0xbca5bffd	-0.020233149
173	0x3c9de63f	0.019274829
174	0x3b97a52b	0.004627844
175	0x3b2c7e18	0.0026320275
176	0xbc951180	-0.018196821
177	0x3c420ef8	0.011844389
178	0xbae03331	-0.00171051
179	0xbc67723e	-0.014126359
180	0x3c01e8c5	0.007929032
181	0xb8b461e3	-8.601302e-05
182	0xbc8f71ad	-0.01751026
183	0xbc56f46d	-0.013119799
184	0xbcbfa9a9	-0.02339633
185	0xbcafd28e	-0.021462705
186	0xbcb8072d	-0.02246436
187	0xbcff3f4e	-0.031158116
188	0x3b313392	0.0027038795
189	0x3cb469f0	0.022023171
190	0xbb3274a4	-0.0027230168
191	0xbc5fe0df	-0.013664453
192	0xbd350f4a	-0.044204034
193	0xbd23f83f	-0.040031668
194	0x3d0d9bab	0.034572285
195	0x3cddc0e3	0.027069515
196	0x3cb4856d	0.022036279
197	0x3bf66186	0.00751895
198	0x3bc2f201	0.0059492593
199	0xbd15f0a6	-0.036606453
200	0xbd0ad7b0	-0.033897102
201	0xbcb63c0a	-0.022245426
202	0x3c9f7369	0.019464212
203	0xbc926692	-0.017871175
204	0x3c986bd4	0.018606104
205	0xbd1e9815	-0.038719255
206	0x3b5edba1	0.003400542
207	0x3c894364	0.016755767
208	0x3c11abfd	0.008891103
209	0x3bf25876	0.0073957993
210	0xbbcd56b5	-0.00626644
211	0x3bc0a831	0.005879425
212	0xba3c9c06	-0.000719488
213	0xbcff4c64	-0.031164356
214	0x3c204094	0.009781022
215	0xbca0b4df	-0.019617496
216	0x3cd34ac3	0.025792485
217	0xbcbd8579	-0.023134934
218	0x3c05cd53	0.008166629
219	0xbd2aa4b9	-0.041660998
220	0xbd117030	-0.03550738
221	0x3b024840	0.001987949
222	0xbce942f1	-0.028474303
223	0x3c093db1	0.008376525
224	0x3c269189	0.010166534
225	0x3c33111e	0.010929374
226	0xbcd19dd6	-0.025587957
227	0x3b4a4247	0.0030862258
228	0x3a474729	0.0007601851
229	0xbce061ff	-0.027390478
230	0xbc9c8712	-0.019107375
231	0x3cc165fc	0.0236082
232	0xbcac5116	-0.021034759
233	0x3cabdc44	0.020979054
234	0xbc5c3643	-0.013440671
235	0xbd0ce793	-0.034400534
236	0xbc47fa9a	-0.012205744
237	0xbc8d78bf	-0.01726949
238	0x3cce4a4a	0.025181908
239	0xbc4e98ec	-0.012609702
240	0xbd1f13d9	-0.038837288
241	0x3cab3204	0.020897873
242	0xbd206fe8	-0.039169222
243	0xbd19d246	-0.037554048
244	0x3c850c78	0.016241297
245	0xbc685769	-0.014180996
246	0x3b155808	0.0022788066
247	0xbc3cd23f	-0.011524736
248	0x3c41562a	0.011800328
249	0x3c91b0ef	0.017784564
250	0x3d16c15d	0.0368055
251	0xbc1b079b	-0.0094622625
252	0x3abfbb4a	0.001462796
253	0xbc71b3ec	-0.014752369
254	0xbd1fd63c	-0.03902267
255	0x3cd82111	0.026382955

fc2.weight f4 [64, 256]
0	0xbda934c3	-0.082620166
1	0x3c3fe938	0.0117133185
2	0xbd6bdab4	-0.05758162
3	0xbd21de6e	-0.039518766
4	0x3ce61778	0.028087363
5	0x3d2b93d0	0.04188901
6	0x3d0e0f2f	0.03468245
7	0xbdb5cdf6	-0.088771746
8	0x3cb469cc	0.022023104
9	0xbda0f1d7	-0.07858627
10	0x3e2ddfb3	0.16979866
11	0xbd200581	-0.03906775
12	0x3c4215bf	0.011846005
13	0x3b88883c	0.004166631
14	0xbcb2ce56	-0.021826904
15	0x3ccd567e	0.025065657
16	0x3d15a661	0.036535624
17	0xbd514d6e	-0.051099233
18	0xbd6c7a26	-0.057733677
19	0x3cfbb934	0.03072796
20	0x3d1e53ad	0.03865402
21	0xbce94fba	-0.0284804
22	0x3bcc23c5	0.00622985
23	0x3db3ab16	0.087728664
24	0x3d40c98d	0.047067214
25	0xbd3e526f	-0.046465334
26	0xbcf2acba	-0.029623378
27	0xbdb9f019	-0.09078998
28	0xbd9038c3	-0.070420764
29	0x3b9bfcb8	0.004760351
30	0x3d2a6ac0	0.04160571
31	0x3c96bce6	0.01840062
32	0xbc27ceb0	-0.010242149
33	0xbd5e73b3	-0.054309558
34	0xbcf30626	-0.029666018
35	0xbc82b212	-0.015954051
36	0x3d583f2c	0.05279462
37	0xbc4b85ec	-0.012422066
38	0x3d322a9f	0.043497678
39	0x3ce10760	0.027469337
40	0x3d1c4f76	0.038161717
41	0xbd004a7b	-0.03132103
42	0xbc533f40	-0.012893498
43	0x3c258d7f	0.010104536
44	0xbd8569b3	-0.06514301
45	0x3c11f498	0.008908413
46	0x3c604160	0.013687462
47	0xbda99a37	-0.08281367
48	0x3c88d4c0	0.01670301
49	0xbd7ac989	-0.061227355
50	0xbda90d40	-0.0825448
51	0xbd691fbb	-0.056915026
52	0xbd556778	-0.05210063
53	0xbd8b228f	-0.06793701
54	0x3c026e18	0.007960819
55	0x3c1e073a	0.009645278
56	0xbd4f14b5	-0.050556857
57	0x3ce26e19	0.02764039
58	0xbd0a91e2	-0.03383053
59	0xbc3f591e	-0.011678962
60	0x3d03d15c	0.032182083
61	0xbcbdaddc	-0.023154192
62	0x3c64057e	0.013917325
63	0xbd392508	-0.04520133
64	0xbda1a771	-0.07893265
65	0xbd28e19e	-0.04123079
66	0x3d64e3bb	0.055881243
67	0x3cabaad7	0.020955486
68	0x3c69dec8	0.014274307
69	0xbc803e0d	-0.015654588
70	0x3cded264	0.027199931
71	0xbd2adaee	-0.041712694
72	0xbcf46859	-0.029834913
73	0xbcbab528	-0.02279146
74	0xbda96605	-0.08271412
75	0x3d3e1ae4	0.046412364
76	0x3d0ef67a	0.034903027
77	0xbd06a3cf	-0.032871064
78	0xbc8b1455	-0.016977469
79	0xbdc474c7	-0.09592586
80	0xbca4b494	-0.020105638
81	0xbc50817f	-0.012726187
82	0xbda35e97	-0.07977026
83	0x3d55382d	0.052055527
84	0xbd209f30	-0.039214313
85	0xbd56f5e2	-0.052480586
86	0x3d3cef9a	0.04612694
87	0x3cbf57ac	0.023357235
88	0xbd6e0154	-0.058106735
89	0xbd58c6f4	-0.05292411
90	0x3c600a28	0.013674296
91	0x3cebae72	0.028769705
92	0xbb0af3de	-0.0021202485
93	0xbd0f7ec0	-0.035032988
94	0xbbb24d6a	-0.0054413574
95	0xbcddd544	-0.027079232
96	0x3ca36a53	0.01994816
97	0x3d8742ac	0.066045135
98	0xbd779145	-0.060441274
99	0x3bfa0b84	0.0076307673
100	0x3d2fda80	0.042932987
101	0xbd2457f3	-0.040122937
102	0x3cc59889	0.024120586
103	0xbbf8e0e6	-0.0075951694
104	0x3d34abe8	0.044109255
105	0x3bc83fcc	0.006111121
106	0x3bffe343	0.007809074
107	0xbd6bb52a	-0.05754582
108	0x3d446e5a	0.047956802
109	0xbd0f8a3e	-0.035043947
110	0xbd92c5bb	-0.0716662
111	0xbd8932c8	-0.06699139
112	0x3cb7fdff	0.022459982
113	0xbda89992	-0.08232416
114	0x3dac9166	0.0842617
115	0x3d2f01ec	0.042726442
116	0xbd4220ff	-0.04739475
117	0x3c27a1d7	0.010231457
118	0x3d197350	0.037463486
119	0x3bb63fe7	0.005561817
120	0xbd6776ac	-0.05650966
121	0xbca626de	-0.020282205
122	0xbd896129	-0.06707985
123	0xbd384a3f	-0.04499268
124	0xbc727c3d	-0.0148001285
125	0xbcc2f9cb	-0.023800751
126	0x3d05cdb7	0.032666888
127	0x3d4b50f8	0.049637765
128	0xbc830e77	-0.015998108
129	0x3ade101a	0.0016942054
130	0xbd889cd4	-0.066705376
131	0xbcaf7fa3	-0.021423167
132	0xbd129cdc	-0.035794124
133	0x3cf38a73	0.029729104
134	0xbc8ade1c	-0.016951613
135	0xbda99fb8	-0.08282417
136	0x3a24e5b6	0.0006290333
137	0x3ccd51f9	0.025063502
138	0xbdc296a9	-0.095013924
139	0x3c67f454	0.014157373
140	0xbcdd18b2	-0.026989315
141	0x3c2ef720	0.010679036
142	0xbd8f6280	-0.07001209
143	0xbcd89582	-0.026438478
144	0xbd90be33	-0.070675276
145	0x3d4a8ea8	0.049452454
146	0x3b42969e	0.0029691826
147	0xbbf628ba	-0.007512179
148	0x3bdbb940	0.006705433
149	0x3c167580	0.009183288
150	0x3d34b12f	0.044114288
151	0xbd77de6a	-0.060514845
152	0xbd90adce	-0.070644006
153	0xbc74e2a8	-0.014946617
154	0xbd3b0bf6	-0.045665704
155	0x3dc79eb1	0.09747065
156	0xbd3d80cf	-0.04626542
157	0x3ba7459d	0.005104734
158	0x3b901bb4	0.0043978337
159	0xbd74e210	-0.059785903
160	0xbd08fe5c	-0.0334457
161	0x3d45cb56	0.04828962
162	0xbd913433	-0.07090034
163	0xbd52b283	-0.051439773
164	0xbd30af51	-0.043135945
165	0xbd882def	-0.06649386
166	0xbc5edd88	-0.013602622
167	0x3cad368a	0.02114417
168	0x3cb0cfc4	0.021583445
169	0xbd220983	-0.039559852
170	0x3c354d75	0.0110658305
171	0xbc234186	-0.0099643525
172	0xbd8bd18e	-0.06827079
173	0xbd4cf4bc	-0.050038084
174	0x3d13f2ac	0.0361201
175	0xbcb7dd5d	-0.022444421
176	0x3bd9c709	0.0066460413
177	0xbd2a3e99	-0.041563604
178	0xbd072d9f	-0.033002492
179	0xbc420fe5	-0.01184461
180	0xbbdcd74a	-0.0067395316
181	0xbb18c780	-0.002331227
182	0xbd4e13e9	-0.050311957
183	0xbc6f5326	-0.0146072265
184	0xbd6ddd6c	-0.058072492
185	0x3d2ca26e	0.042147093
186	0x3c931e45	0.01795877
187	0xbccd9f36	-0.025100332
188	0xbdb8c63e	-0.09022187
189	0xbd7a75e1	-0.061147574
190	0xbc3974c5	-0.011319344
191	0xbc6f5b10	-0.014609113
192	0x3d2a50ab	0.041580837
193	0x3c0f6835	0.008752872
194	0x3d5b28cb	0.0535057
195	0x3b5884fb	0.0033038247
196	0x3cad6d10	0.02117017
197	0xbd8bbc22	-0.06822993
198	0xbd92923c	-0.07156798
199	0xbb569f24	-0.0032748664
200	0xbd50e00e	-0.050994925
201	0x3d394ff6	0.045242272
202	0x3d4defaa	0.05027739
203	0x3c19cb79	0.009386891
204	0xbd1de3cd	-0.038547326
205	0x3d34077e	0.043952458
206	0xbd1ea96b	-0.03873579
207	0x3c01baa2	0.007918032
208	0xbb9a2c62	-0.004704998
209	0x3c8812e0	0.016610563
210	0xbca2d072	-0.019874785
211	0xbd0c6b3a	-0.034281947
212	0xbd93e600	-0.072216034
213	0xbd9530f5	-0.072847284
214	0xbd765ff0	-0.060150087
215	0x3ca2c952	0.019871388
216	0xbdc2306d	-0.09481893
217	0x3d7ff93e	0.062493555
218	0xbc7253d2	-0.014790492
219	0x3d21a7a8	0.03946653
220	0xbd75ac22	-0.05997861
221	0xbcbc1db0	-0.022963375
222	0xbd0924d6	-0.033482395
223	0x3cd83ad5	0.02639524
224	0x3c5e295f	0.013559668
225	0x3d2af29d	0.04173528
226	0xbd737029	-0.059433136
227	0xbd2a939d	-0.04164468
228	0x3cf62f15	0.030051747
229	0x3c9184de	0.017763551
230	0xbda5cd95	-0.08095852
231	0xbcdaba06	-0.026700031
232	0xbdbc1441	-0.091835506
233	0xbc301f4b	-0.010749648
234	0xbc0b5933	-0.0085051535
235	0xbc1f11e1	-0.0097088525
236	0xbd19b378	-0.03752467
237	0x3d5a7286	0.053331874
238	0x3d537f99	0.05163536
239	0x3ccc1859	0.024913954
240	0x3c9c32af	0.019067137
241	0xbd52d10e	-0.0514689
242	0xbd8d95e8	-0.06913358
243	0xbd86e0f4	-0.06585875
244	0x3d0adbf6	0.033901177
245	0x3bdf80de	0.006820782
246	0xbc5905c0	-0.013246
247	0x3c83ffed	0.016113246
248	0xbc5074e0	-0.012723178
249	0x3d6f5f86	0.058440708
250	0xbccb29ba	-0.02480017
251	0x3d093cfa	0.033505417
252	0xbcd1db38	-0.025617227
253	0xbd9f2f71	-0.077727206
254	0xbc978272	-0.018494818
255	0x3d01c043	0.031677496

fc2.bias f4 [64]
0	0x3d3c3766	0.04595127
1	0x3d25dbff	0.040493008
2	0x3c568777	0.013093821
3	0x3aba2c7d	0.0014203932
4	0xbcbbb8a0	-0.022915184
5	0x3d3729bc	0.044717535
6	0xbc953269	-0.018212514
7	0x3d10475a	0.035224296
8	0x3d01bdf6	0.0316753
9	0xbc726fb7	-0.014797143
10	0x3e0eb3ec	0.13935822
11	0x3d4b3953	0.049615216
12	0xbd772e05	-0.060346622
13	0xbd11c1dd	-0.035585273
14	0xbd5125b4	-0.051061347
15	0x3d357b3c	0.04430698
16	0x3bc99891	0.0061522205
17	0xbd1a8f00	-0.03773403
18	0xbbe04769	-0.0068444503
19	0x3d9fe132	0.078066245
20	0x3d10979d	0.03530084
21	0x3c2bf203	0.010494712
22	0x3d63ce3c	0.055616602
23	0x3d078b1a	0.033091642
24	0x3d09a346	0.033602975
25	0x3d297880	0.041374683
26	0xbd5c968e	-0.053854518
27	0xbd4f352f	-0.05058783
28	0xbd5f8d6e	-0.054578237
29	0x3b8d1f56	0.004306714
30	0xbd8c2365	-0.068426885
31	0x3c9763a7	0.018480135
32	0xbd412b28	-0.047160298
33	0xbc2c81c1	-0.010528983
34	0xbd34ce28	-0.04414192
35	0xbdc9f34c	-0.09860858
36	0x3c2b082a	0.010438958
37	0x3d3ae32a	0.045626797
38	0xbcf54d83	-0.029944187
39	0x3cbe4af2	0.023229096
40	0x3c93ad90	0.018027097
41	0xbd67a389	-0.056552444
42	0xbd423179	-0.047410462
43	0x3d21954c	0.03944902
44	0xbd1b3ce2	-0.03789986
45	0x3dab69ee	0.08369814
46	0xbd3ab743	-0.04558493
47	0x3d68aec6	0.056807302
48	0xbd94337b	-0.072363816
49	0x3cffeab4	0.031239845
50	0xbce976c9	-0.028499024
51	0x3cac44e3	0.021028941
52	0x3d7f5662	0.06233824
53	0xbceabcb1	-0.028654428
54	0x3d4e4be5	0.050365347
55	0xbc711f63	-0.014716956
56	0xbd292f88	-0.041305095
57	0xbd4cfaa6	-0.050043724
58	0x3bf8dc0b	0.0075945905
59	0x3c2809dd	0.010256258
60	0xbcda8aeb	-0.02667757
61	0x387e55a3	6.0638075e-05
62	0x3cac3207	0.021019949
63	0x3d0e25d7	0.034704056

fc3.weight f4 [1, 64]
0	0xbe1008b8	-0.14065826
1	0x3e5e14a4	0.21687561
2	0xbd498d35	-0.04920693
3	0x3e435400	0.19075012
4	0xbd763575	-0.060109574
5	0x3e3470ed	0.17621203
6	0xbc882460	-0.016618907
7	0x3e331958	0.17490137
8	0x3e4c9c65	0.19981535
9	0x3e27f766	0.16402969
10	0xbed025bc	-0.4065379
11	0xbd89da5f	-0.06731104
12	0x3e390801	0.1806946
13	0x3e6229ec	0.22086304
14	0x3e65d917	0.22446094
15	0x3e382539	0.1798295
16	0xbd8a14fd	-0.067422844
17	0x3e595601	0.21224214
18	0x3e3b4f01	0.18291856
19	0x3e3b3ab5	0.18284114
20	0xbdea92e6	-0.114538
21	0x3e498515	0.19679673
22	0xbe766b71	-0.24064423
23	0xbd7fefbe	-0.062484495
24	0x3e298fc5	0.1655875
25	0xbe7c1fb8	-0.24621475
26	0x3e3fc317	0.18726765
27	0x3e536f41	0.20647909
28	0xbd3a0819	-0.04541788
29	0x3e29e3a0	0.16590738
30	0xbd94500d	-0.07241831
31	0xbdc80ac3	-0.09767678
32	0x3b4043f1	0.0029337371
33	0x3e08e802	0.13369754
34	0x3e206635	0.15663989
35	0x3e102990	0.14078355
36	0xbcb488e3	-0.022037929
37	0x3e4ca7f2	0.19985941
38	0x3e2e6ffe	0.17034909
39	0x3e25876c	0.1616494
40	0x3e69da73	0.22837238
41	0x3e178182	0.14795497
42	0x3e82401e	0.25439543
43	0x3e5456ee	0.20736286
44	0x3e0f8e88	0.14019215
45	0x3e60bcac	0.21946973
46	0x3e45df5f	0.1932349
47	0x3e06576a	0.13119283
48	0x3e351089	0.17682089
49	0x3b3169e1	0.0027071165
50	0xbdb78e0a	-0.08962639
51	0xbd994da5	-0.07485513
52	0x3e6694b0	0.22517657
53	0x3e364f90	0.17803788
54	0x3e4caa69	0.19986881
55	0x3e21762b	0.15767734
56	0x3e1ad88a	0.15121666
57	0xbdc0cc69	-0.09413988
58	0xbbf2a69a	-0.0074051144
59	0xbee15629	-0.44011047
60	0x3e293903	0.16525654
61	0xba86a486	-0.001027242
62	0x3db43a1a	0.088001445
63	0xbd7108b0	-0.058846176
