models/best_afp_featurizer.pth (torch, 331968 bytes, 5 tensors)

fc1.weight f4 [256, 256]
-0.05971462 -0.024195246 -0.04940163 -0.01444991 -0.05469488 -0.02834645 0.022852313 -0.06236927
-0.070372716 -0.026844736 -0.06847042 0.019276045 0.04104848 -0.03778932 -0.01074702 0.076352194
-0.05525884 0.092847146 -0.0064368006 -0.050113294 -0.032140646 0.0159369 -0.07556185 -0.057237726
0.022067912 -0.66736346 -0.08217727 0.022937376 -0.07969181 0.042186774 0.033581246 0.015501758
-0.035497658 -0.06424747 -0.0059246714 -0.046321172 -0.045486085 -0.028277483 -0.052921295 0.0094821155
-0.032051682 0.027671827 0.03576816 -0.013292462 -0.06290441 0.018554987 -0.058983877 -0.12135577
0.041799728 0.08974817 -0.0022620198 -0.02356858 -0.0103960475 0.073578864 -0.061926093 -0.05764939
0.0043824012 0.06867339 -0.078250945 -0.006845435 0.011178315 0.0577876 0.035842955 0.016246563
0.022618867 0.15624277 0.03447506 0.03414558 -0.021574156 0.024121964 0.027588481 0.044943564
0.037230365 -0.027377462 -0.0418215 0.063080534 -0.048866253 -0.044008706 -0.020426733 0.010892819
0.031307034 0.016691206 -0.01071732 -0.0015938225 0.020952582 -0.04393081 0.027032845 -0.020704346
-0.008094522 -0.0315986 0.052110568 0.05000114 0.014149471 -0.03559867 -0.020143183 -0.023596358
-0.04549396 -0.025287034 0.052617542 -0.018575193 0.017736385 -0.049139038 -0.002163676 0.05883702
0.037652284 0.023887435 -0.16502398 0.053528972 0.0011971912 -0.08027831 0.12325736 0.040787775
-0.011600029 -0.011008945 0.038102128 0.008226381 -0.048061684 0.025503192 -0.049989805 0.054117393
-0.039191037 0.032581907 0.003794884 -0.022684189 0.036806095 -0.039752644 -0.01129814 -0.005143037
-0.00030213114 -0.07949252 -0.039850265 -0.068563856 0.04793269 -0.07430168 -0.041528758 -0.05184259
0.04263507 0.019276448 0.018142238 -0.03489492 0.04095037 -0.015771477 -0.026604885 0.0378348
-0.01213038 0.103750944 -0.016777106 -0.0052202814 0.033906713 0.0058857454 -0.05110741 -0.02832238
-0.045657743 -0.017790766 -0.025041476 0.073948234 0.024250792 0.0017485442 0.0225163 -0.060727943
-0.047520924 0.03503624 -0.016919097 -0.030496066 0.093308546 0.013775968 0.1214524 -0.000275663
0.08355706 0.0074078706 -0.026489403 0.026974194 -0.058117278 9.859594e-05 0.04654629 -0.011903778
-0.05964438 0.0073995693 -0.036708973 0.017898135 0.012246476 0.008832872 0.006704947 -0.050254595
0.015316929 -0.041967288 -0.01615694 -0.0027550517 -0.023090607 -0.06590227 0.0016693122 -0.058133777
-0.013607917 -0.06881748 -0.080137745 0.008831471 -0.07472126 0.069318086 -0.047720883 -0.036955018
-0.035331983 0.25928268 0.033644628 -0.03510031 -0.022435518 -0.0085593015 -0.044484228 -0.039973143
-0.050765134 0.05273998 0.050179623 0.06978917 0.031598147 0.0036895135 -0.02033129 -0.032128535
-0.060504064 0.009980954 0.02518425 -0.050346427 -0.038399816 -0.032742653 0.02301465 0.06051374
-0.020720353 -0.01291529 -0.010237835 0.115627885 -0.015926206 -0.06899696 0.047651332 -0.02745691
-0.009896469 0.012819643 -0.07159858 0.041701313 -0.03681825 0.031652894 -0.0161847 -0.03102645
0.05092587 -0.04339924 0.046557944 0.017236626 -0.05197234 -0.0112533 -0.021263778 0.013611962
0.0149012515 0.073369086 -0.0375616 0.010092903 -0.0039114486 -0.043122366 0.035297524 -0.029597783
00000000: 5197 74bd 1c35 c6bc 5d59 4abd 51bf 6cbc
00000010: bd07 60bd d036 e8bc c634 bb3c eb76 7fbd
00000020: 921f 90bd 7ee9 dbbc 383a 8cbd cce8 9d3c
00000030: 7322 283d f9c8 1abd 4514 30bc 8a5e 9c3d
00000040: 1857 62bd a526 be3d cceb d2bb 9943 4dbd
00000050: e9a5 03bd 1a8e 823c 2cc0 9abd 1b72 6abd
00000060: c4c7 b43c 55d8 2abf 8e4c a8bd 2ae7 bb3c
00000070: 7635 a3bd 0acc 2c3d 7d8c 093d 16fb 7d3c
00000080: fe65 11bd 2d94 83bd bf23 c2bb 45bb 3dbd
00000090: 9e4f 3abd 2ea6 e7bc 00c4 58bd e05a 1b3c
000000a0: a048 03bd 07b0 e23c a281 123d a0c8 59bc
000000b0: 07d4 80bd a100 983c 1499 71bd 6089 f8bd
000000c0: 3136 2b3d e3cd b73d 653e 14bb e512 c1bc
000000d0: 2f54 2abc 84b0 963d 37a6 7dbd c421 6cbd
000000e0: 3f9a 8f3b a2a4 8c3d 0842 a0bd ac4f e0bb
000000f0: 4025 373c b1b2 6c3d 10d0 123d 8317 853c
00000100: 344b b93c 1bfe 1f3e b835 0d3d 3cdc 0b3d
00000110: 49bc b0bc 6d9b c53c 3d01 e23c be16 383d
00000120: de7e 183d b346 e0bc 054d 2bbd 5e30 813d
00000130: fb27 48bd 7942 34bd f755 a7bc cb77 323c
00000140: ce3b 003d ffbb 883c b397 2fbc cfe7 d0ba
00000150: c0a4 ab3c cbf0 33bd fc73 dd3c 299c a9bc
00000160: e39e 04bc 896d 01bd e471 553d ffcd 4c3d
00000170: 2fd3 673c e9cf 11bd 5103 a5bc 264d c1bc
00000180: e057 3abd c126 cfbc 7e85 573d 012b 98bc
00000190: e54b 913c 0446 49bd 76cc 0dbb 16ff 703d
000001a0: 4839 1a3d 95af c33c 0cfc 28be 3241 5b3d
000001b0: 12eb 9c3a f468 a4bd 5b6e fc3d 1511 273d
000001c0: 0c0e 3ebc dd5e 34bc fa10 1c3d f1c7 063c
000001d0: 54dc 44bd 12ec d03c 1cc2 4cbd 33aa 5d3d
000001e0: c886 20bd 9b74 053d 97b3 783b 31d4 b9bc
000001f0: fdc1 163d abd3 22bd d51b 39bc ec86 a8bb
00000200: 5b67 9eb9 f9cc a2bd 083a 23bd 356b 8cbd
00000210: 1155 443d 7b2b 98bd 0f1a 2abd e558 54bd
00000220: 1ca2 2e3d a4e9 9d3c 089f 943c faed 0ebd
00000230: 93bb 273d 2f33 81bc 7df2 d9bc aaf8 1a3d
00000240: 80be 46bc 607b d43d 2470 89bc e50e abbb
00000250: c4e1 0a3d 36dd c03b 0156 51bd 5604 e8bc
00000260: 9d03 3bbd f1bd 91bc c823 cdbc 2c72 973d
00000270: 99a9 c63c 682f e53a 1b74 b83c ddbd 78bd
00000280: 4da5 42bd 2982 0f3d eb99 8abc e3d2 f9bc
00000290: 8d18 bf3d 99b4 613c 09bc f83d dd86 90b9
000002a0: f71f ab3d b9bd f23b 4e00 d9bc fcf8 dc3c
000002b0: 620c 6ebd 4bc5 ce38 53a7 3e3d 1008 43bc
000002c0: aa4d 74bd 1678 f23b 265c 16bd 1c9f 923c
000002d0: 71a5 483c c0b7 103c 2cb5 db3b c3d7 4dbd
000002e0: dbf3 7a3c e4e5 2bbd 8f5b 84bc 198e 34bb
000002f0: 8328 bdbc c5f7 86bd d3cc da3a af1d 6ebd
00000300: bef3 5ebc 2ef0 8cbd 421f a4bd e0b1 103c
00000310: 7607 99bd a4f6 8d3d f976 43bd 255e 17bd
00000320: 45b8 10bd b3c0 843e f3ce 093d 58c5 0fbd
00000330: b1ca b7bc 503c 0cbc 1835 36bd e1ba 23bd
00000340: 1aef 4fbd e105 583d 2689 4d3d a0ed 8e3d
00000350: 0f6d 013d c4cb 713b ce8d a6bc 3699 03bd
00000360: 1cd3 77bd 2887 233c 334f ce3c 0e38 4ebd
00000370: 2049 1dbd 291d 06bd 3889 bc3c 41dd 773d
00000380: bbbd a9bc a79a 53bc 98bc 27bc 50ce ec3d
00000390: ad77 82bc 474e 8dbd 0b2e 433d 50ed e0bc
000003a0: cd24 22bc 7b09 523c 47a2 92bd ffce 2a3d
000003b0: bcce 16bd 77a6 013d c795 84bc 2f2b febc
000003c0: a597 503d 67c3 31bd 8bb3 3e3d d333 8d3c
000003d0: f3e0 54bd c35f 38bc 6031 aebc b504 5f3c
000003e0: 6124 743c 8842 963d 31da 19bd b45c 253c
000003f0: 9c2b 80bb 14a1 30bd 2394 103d 0d77 f2bc

fc1.bias f4 [256]
0.004269771 -0.0074726716 0.011644923 -5.484088e-13 -0.0009913289 0.02907134 0.07484063 -0.007648199
7.494217e-07 -2.241625e-08 -0.031957895 -0.05121019 -0.049486175 0.0021016719 -0.032616436 -0.00042516083
0.026283158 0.019418808 -0.03818992 -1.1327e-41 -6.370644e-11 -0.032233745 0.006075172 -0.040685892
-0.018115923 0.0037897413 0.0008277624 0.015626313 -0.026097728 0.015742946 0.04094935 -1.31628e-40
0.0006506446 0.0026015877 0.022268724 -0.02308142 0.0140601 0.013523474 0.040630914 -0.0110066105
0.04205829 -0.026559802 -0.067326866 0.028392479 0.0002985003 0.017077925 0.022239514 -0.051823825
0.050779898 0.0058625597 -0.012825021 -0.017346622 -0.02808018 -0.030512953 -0.03358627 -0.027239667
-0.027456677 -0.014768117 -4.6469227e-37 0.012168316 -0.0036592258 -4.9227173e-18 0.0409893 0.00817293
0.0073739844 -0.024962856 0.026218861 0.061800584 -0.04149693 0.0708478 0.016019758 -2.4229055e-06
-0.009159364 -0.011429392 -0.0037912913 0.04706656 0.024442215 0.09103104 -0.041830935 0.0497738
-0.022830581 0.011575042 -0.032080423 -0.03120126 0.0114862155 -0.023490736 0.019050186 8.396e-41
0.0030946536 -0.03214662 0.022321442 -0.05841247 0.00097255234 0.03505091 0.0021048132 -0.06749363
0.022341544 0.16691442 0.012483257 0.0001431194 0.009369156 -0.043798886 0.021757629 -0.046593655
-0.014026976 0.00018938654 0.031033732 -0.032706242 1.543202e-39 -0.0031848648 -0.01018901 -0.0042030676
-0.014411053 0.044290405 -0.012368227 -0.00040884764 0.0049257805 0.0430066 -0.016616998 -0.023100717
0.0012903884 0.048645508 -0.03625335 -0.020390753 0.015337922 0.020089924 -0.0143924905 -0.046357978
-0.035469547 -0.0067456053 0.002902258 -0.005914282 0.020857707 0.009543877 0.010222532 1.109366e-39
-4.2820675e-15 -0.071518354 -0.037201483 -0.1714077 0.0075433156 0.03164341 0.025331505 0.00072772
0.05115144 0.0057254997 -0.01869294 0.021714104 0.00015121305 -0.003076343 0.00221117 2.0576172e-06
0.07894451 -0.036811493 -0.045848396 -0.0047715986 -0.021491742 -0.0047143414 -0.013236488 0.015087274
0.036317002 0.040351566 8.1488e-38 -0.011862771 -0.06705867 -0.022032203 0.041590378 0.031115815
-0.008527271 0.0065983445 -0.0013199316 0.00042101523 -0.011719203 -0.013555487 -0.021152282 -0.023705848
0.07077702 -0.09171116 7.7455405e-07 -1.9719303e-06 -0.033145502 0.053790372 1.8355832e-06 -0.034311738
0.019840159 -0.0065549626 -0.018833997 -0.027640112 4.3084965e-05 -0.0071428614 -0.0070213154 -0.0047661904
0.024585837 0.12650745 0.039559435 0.039781727 0.0015041477 0.0043373383 0.0058054794 -4.21179e-05
0.07198596 -9.364889e-19 -0.047102723 -0.029485203 -0.0004981975 -0.00074048416 0.014044856 -0.023340134
-0.024982702 -0.0060480186 0.04253532 0.29357502 0.008725522 -0.00018060947 -0.0033992287 -0.018563548
-5.664706e-16 -0.02360635 -8.329298e-28 -0.0048492798 0.037534222 0.0135384 -0.012981426 -0.05712395
0.026496314 0.03779065 0.0350198 0.049436655 0.016836181 -0.067071915 0.023373554 -4.3623048e-05
1.64796e-40 0.051805567 7.100973e-05 0.018638734 -0.0031750568 0.010577666 -0.008103478 -0.09852041
-0.06907561 -0.03637301 -0.0011910796 0.02690739 -0.0057509625 0.077257566 0.013426527 -0.004576805
-4.0274262e-08 -0.0007389243 -0.022285944 -0.02622261 0.00939381 0.024385039 -0.0009073383 0.009039691
00000000: 6fe9 8b3b 50dd f4bb 59ca 3e3c 055d 1aab
00000010: 7aef 81ba 0527 ee3c 0b46 993d be9d fabb
00000020: de2b 4935 db8d c0b2 48e6 02bd c7c1 51bd
00000030: 04b2 4abd 34bc 093b d098 05bd 1fe8 deb9
00000040: c74f d73c 3114 9f3c 096d 1cbd 931f 0080
00000050: 8a17 8cae 8807 04bd 3d12 c73b 40a6 26bd
00000060: d867 94bc 4f5d 783b 32fe 583a c102 803c
00000070: e7ca d5bc 5af7 803c 81ba 273d ed6e 0180
00000080: 0590 2a3a 667f 2a3b e66c b63c 3f15 bdbc
00000090: 555c 663c 9091 5d3c 9a6c 263d 1255 34bc
000000a0: 5045 2c3d f193 d9bc abe2 89bd 5897 e83c
000000b0: 0880 9c39 01e7 8b3c a42f b63c 3845 54bd
000000c0: 95fe 4f3d b71a c03b 0920 52bc 811a 8ebc
000000d0: 6808 e6bc 4df6 f9bc c291 09bd b925 dfbc
000000e0: d3ec e0bc f9f5 71bc 6820 1e83 9e5d 473c
000000f0: 9fcf 6fbb c09d b5a2 65e4 273d c1e7 053c
00000100: 77a1 f13b e77e ccbc f0c8 d63c 9c22 7d3d
00000110: aff8 29bd a718 913d de3b 833c 3399 22b6
00000120: 2811 16bc 5842 3bbc 5077 78bb ddc8 403d
00000130: 0a3b c83c 7b6e ba3d ea56 2bbd 9ddf 4b3d
00000140: 3307 bbbc 3fa5 3d3c c366 03bd c999 ffbc
00000150: ae30 3c3c a56f c0bc 230f 9c3c 0cea 0000
00000160: accf 4a3b 2dac 03bd 75db b63c ea41 6fbd
00000170: e2f2 7e3a 8b91 0f3d e8f0 093b 1a3a 8abd
00000180: 9d05 b73c 9deb 2a3e 9386 4c3c 5212 1639
00000190: 1781 193c 7666 33bd 0e3d b23c fdd8 3ebd
000001a0: 67d1 65bc 1096 4639 743a fe3c fbf6 05bd
000001b0: d2cd 1000 2ab9 50bb ceef 26bc e3b9 89bb
000001c0: 561c 6cbc db69 353d 1ba4 4abc 9a5a d6b9
000001d0: 7168 a13b b027 303d 5f20 88bc b73d bdbc
000001e0: 4022 a93a 8340 473d 657e 14bd 820a a7bc
000001f0: e84b 7b3c a093 a43c 7bce 6bbc dde1 3dbd
00000200: 8448 11bd 3d0a ddbb cf33 3e3b 98cc c1bb
00000210: c8dd aa3c ec5d 1c3c 687c 273c 7614 0c00
00000220: 1a47 9aa7 3778 92bd 9560 18bd 8085 2fbe
00000230: eb2d f73b 859c 013d 0484 cf3c 76c4 3e3a
00000240: 2c84 513d f99c bb3b f021 99bc c7e1 b13c
00000250: f28e 1e39 799c 49bb 47e9 103b 9815 0a36
00000260: a9ad a13d a6c7 16bd 87cb 3bbd 125b 9cbb
00000270: 730f b0bc c37a 9abb dbdd 58bc 9d30 773c
00000280: 23c1 143d af47 253d d9d4 dd01 115c 42bc
00000290: 0e56 89bd e17c b4bc ac5a 2a3d 98e6 fe3c
000002a0: f8b5 0bbc ed36 d83b 8e01 adba b5bb dc39
000002b0: e601 40bc d517 5ebc 8d47 adbc c432 c2bc
000002c0: 8bf3 903d 10d3 bbbd f3ea 4f35 8155 04b6
000002d0: 94c3 07bd 4b53 5c3d 295e f635 778a 0cbd
000002e0: d487 a23c 03cb d6bb c149 9abc 846d e2bc
000002f0: 21b6 3438 aa0e eabb 1013 e6bb b42d 9cbb
00000300: 3d68 c93c 2b8b 013e 1309 223d 2af2 223d
00000310: d226 c53a 3b20 8e3b e43b be3b c0a7 30b8
00000320: 606d 933d 8d33 8aa1 c9ee 40bd f48a f1bc
00000330: 7899 02ba 0d1d 42ba 651c 663c cf33 bfbc
00000340: 86a8 ccbc 752e c6bb 8439 2e3d 774f 963e
00000350: 7ef5 0e3c fc61 3db9 98c5 5ebb 9512 98bc
00000360: 2746 23a6 1b62 c1bc a6fb 8392 b5e6 9ebb
00000370: 7cbd 193d 2ad0 5d3c 0cb0 54bc cefa 69bd
00000380: cc0e d93c 5eca 1a3d ec70 0f3d 177e 4a3d
00000390: 08ec 893c 005d 89bd e579 bf3c e4f7 36b8
000003a0: 62cb 0100 1332 543d 0feb 9438 42b0 983c
000003b0: 9d14 50bb f24d 2d3c 73c4 04bc 12c5 c9bd
000003c0: 8377 8dbd defb 14bd 001e 9cba e36c dc3c
000003d0: 9272 bcbb 3739 9e3d f0fa 5b3c 06f9 95bb
000003e0: 05fa 2cb3 5fb4 41ba 0391 b6bc cdd0 d6bc
000003f0: 7fe8 193c 22c3 c73c 71da 6dba 361b 143c

fc2.weight f4 [64, 256]
-0.005827946 -0.0067489855 -0.059115894 8.00043e-40 -0.05262235 -0.0060371207 0.021256309 -0.06261419
-2.1061262e-05 0.008547408 0.025424635 0.051103882 0.020928215 -5.367175e-39 0.032788303 -1.796256e-38
0.03310292 0.023572888 -0.0218537 -4.23109e-39 -2.057109e-39 0.035008326 -0.011261687 -0.0023216747
-0.03444573 0.03238622 0.0028871396 -1.3939275e-05 -0.008940344 -0.02012467 0.046704583 2.9762e-40
-7.70616e-40 -0.016962063 0.020200707 -0.014477936 0.00011253101 0.012398155 0.013911442 2.023342e-39
-0.0023805446 1.672275e-39 -0.04303774 0.008721645 -0.03843496 -0.017986301 0.000409853 -6.324727e-38
0.021904921 0.029656261 1.3957143e-38 0.028324774 -3.0181e-41 0.042734757 0.03154266 0.0066285185
-0.030152842 -0.03995399 1.469466e-39 -0.014022174 -1.549454e-39 -2.60933e-40 0.006760709 6.773989e-39
-1.81005e-39 -0.053807314 -0.040783092 -0.044937253 -0.0047551915 -0.03247224 -0.035881326 -1.229348e-39
0.04845126 -9.042161e-39 -0.017388368 0.009823281 0.008751334 -0.012210187 -0.02273777 0.04686903
0.0057646586 0.017426165 0.039776046 -0.013836073 -0.0017030132 -0.056775425 0.0035493334 -4.84618e-40
0.0056435484 0.00092435203 -0.008431901 -0.05385181 -1.834409e-39 -0.015264161 -1.197687e-39 0.031001708
-0.0121062305 -0.010466733 -0.0544249 -0.014187735 -0.017000197 -0.025389371 0.025924876 0.03588017
-0.024933903 0.0015675854 -0.012107618 1.270431e-39 -4.34411e-40 -9.83507e-05 -0.016556885 -1.804375e-39
0.0030074469 -0.049117085 -5.0162168e-09 -0.0039229644 -0.025753425 -0.03987449 -6.745792e-39 0.030906808
0.0477707 0.02367968 -0.025717735 -6.00731e-40 0.049989052 0.043305423 -0.026542021 -0.021842916
-0.016105862 -0.023617683 -0.007776982 5.12871e-40 -0.040877365 -0.017006759 -0.015628885 -9.43658e-40
5.204181e-39 -0.04871787 -0.06284065 0.004447029 -0.058855284 0.004942256 -0.028918173 0.023087332
-0.039534677 -0.02662923 -0.056240324 -0.05301777 0.030517828 -0.045452993 -0.008385273 0.024777126
0.00015923884 -0.03937465 -0.010822383 3.46233e-40 0.006440699 0.036978118 -0.018758547 -0.024479374
-0.012416013 -0.017750332 -2.86976e-40 0.040885754 0.040043034 0.041443102 -0.029727574 0.015782526
0.00015461245 0.013852788 -7.300164e-39 0.030636689 -1.946667e-38 0.039658543 -2.097057e-39 -0.046674225
0.020558005 -0.007195245 -3.24677e-40 -0.002832631 -0.034004398 -0.03643356 0.0007762567 -0.006834683
-0.006312787 0.004000103 -0.05171063 0.044231832 0.052642725 -0.02012561 1.44086e-40 0.025093231
-0.030447211 0.023327533 -0.062193077 -0.00024350215 -0.021139799 -2.96826e-40 0.033518437 6.6352e-40
0.017336274 -4.70293e-40 -0.03129396 -0.023248333 0.002825321 -0.06582419 0.05450189 0.046028182
1.552524e-39 -0.061889514 -0.024928024 -0.070171535 0.042690184 -0.010895084 -0.012071477 0.023604859
6.39363e-40 -0.058913015 1.655863e-39 0.019876132 0.009082549 0.033618722 -0.002124996 -0.0018694162
-0.0410257 -0.018156188 -0.01222096 -0.066907644 -0.040143482 0.044192918 0.021173771 1.417809e-39
1.0764804e-38 -0.015310342 1.589688e-39 -0.06665084 -0.059140515 -0.0052174563 -0.0031669026 -0.05574813
0.045912188 0.034865927 -6.75003e-40 -0.058756158 -9.437232e-06 0.031800896 -0.02438583 -0.04966304
2.7756e-41 2.52099e-40 -0.037359588 0.009782285 -0.03796804 0.049461495 -5.440351e-39 -0.051657666
00000000: 5bf8 bebb 9826 ddbb 8223 72bd 32b6 0800
00000010: 898a 57bd 0ad3 c5bb b621 ae3c de3b 80bd
00000020: b7ac b0b7 6d0a 0c3c 5347 d03c 4e52 513d
00000030: a671 ab3c 8071 3a80 074d 063d 4f98 c380
00000040: ed96 073d ee1b c13c 8806 b3bc 8f12 2e80
00000050: 6266 1680 e464 0f3d f082 38bc 3d27 18bb
00000060: f716 0dbd 6aa7 043d 2a36 3d3b bbdc 69b7
00000070: 857a 12bc 7edc a4bc 4e4d 3f3d a53d 0300
00000080: 2a64 0880 06f4 8abc f47b a53c dd34 6dbc
00000090: a0fe eb38 a221 4b3c d1ec 633c 4108 1600
000000a0: e902 1cbb 9f35 1200 5748 30bd 3be5 0e3c
000000b0: fa6d 1dbd 0258 93bc 8ae1 d639 ea2c ac81
000000c0: f371 b33c b0f1 f23c d6fa 9700 5b09 e83c
000000d0: 2254 0080 a40a 2f3d e032 013d 0b34 d93b
000000e0: 1803 f7bc cca6 23bd 4600 1000 43bd 65bc
000000f0: 3fdf 1080 60d7 0280 f088 dd3b 20c3 4900
00000100: afb5 1380 0f65 5cbd 2c0c 27bd 2010 38bd
00000110: 70d1 9bbb 9d01 05bd 4cf8 12bd ec62 0d80
00000120: d474 463d de75 6280 0d72 8ebc d4f1 203c
00000130: c161 0f3c 3c0d 48bc 8f44 babc bdf9 3f3d
00000140: 76e5 bc3b 51c1 8e3c 35ec 223d b2b0 62bc
00000150: a437 dfba 598d 68bd ef9b 683b eb46 0580
00000160: 84ed b83b 3750 723a f525 0abc b793 5cbd
00000170: 96f9 1380 8816 7abc aa0a 0d80 4bf7 fd3c
00000180: 3659 46bc a97c 2bbc a5ec 5ebd ac73 68bc
00000190: ff43 8bbc 5ffd cfbc 6860 d43c 16f7 123d
000001a0: 2f42 ccbc 7077 cd3a 085f 46bc 72d5 0d00
000001b0: f6ba 0480 a141 ceb8 4ea2 87bc dda5 1380
000001c0: 9618 453b ff2e 49bd 1c5b acb1 368c 80bb
000001d0: d9f8 d2bc 6f53 23bd 8674 4980 4630 fd3c
000001e0: 36ab 433d e3fb c13c 00ae d2bc 988a 0680
000001f0: 52c1 4c3d 0761 313d a76e d9bc eaef b2bc
00000200: 71f0 83bc df79 c1bc 0ed6 febb ad95 0500
00000210: 066f 27bd c251 8bbc 2608 80bc 8946 0a80
00000220: 24ab 3800 648c 47bd 99b2 80bd 62b8 913b
00000230: 3d12 71bd a6f2 a13b cee5 ecbc a521 bd3c
00000240: 1def 21bd 8b25 dabc 415c 66bd 2929 59bd
00000250: 8600 fa3c eb2c 3abd 6262 09bc 66f9 ca3c
00000260: 5af9 2639 5047 21bd 5d50 31bc 28c5 0300
00000270: 800c d33b 5e76 173d 86ab 99bc f888 c8bc
00000280: 886c 4bbc 2569 91bc f91f 0380 d277 273d
00000290: 2a04 243d 3ec0 293d 3e87 f3bc 5b4a 813c
000002a0: 771f 2239 cef6 623c e37d 4f80 cbf9 fa3c
000002b0: 28f9 d380 ff70 223d bed5 1680 792d 3fbd
000002c0: 4369 a83c 17c6 ebbb 1189 0380 aaa3 39bb
000002d0: 3248 0bbd 5b3b 15bd b57d 4b3a 7af5 dfbb
000002e0: 7fdb cebb 4c13 833b 87ce 53bd 702c 353d
000002f0: e69f 573d 77de a4bc a791 0100 5290 cd3c
00000300: 6e6c f9bc 6219 bf3c 2bbe 7ebd 9c54 7fb9
00000310: 5f2d adbc 6e3b 0380 a14a 093d a039 0700
00000320: cd04 8e3c fc1e 0580 182e 00bd 4a73 bebc
00000330: 0529 393b d5ce 86bd 603d 5f3d 0c88 3c3d
00000340: cee7 1000 dc7f 7dbd db35 ccbc 18b6 8fbd
00000350: e7db 2e3d 4b81 32bc 72c7 45bc fa5e c13c
00000360: 49f6 0600 c64e 71bd df07 1200 45d3 a23c
00000370: f9ce 143c c9b3 093d 8443 0bbb 3307 f5ba
00000380: 900a 28bd 49bc 94bc 6c3a 48bc e006 89bd
00000390: 7e6d 24bd a203 353d 9e74 ad3c 4670 0f00
000003a0: e537 7500 3bd8 7abc 674f 1100 3c80 88bd
000003b0: 533d 72bd 32f7 aabb cf8b 4fbb 2758 64bd
000003c0: 6b0e 3c3d 93cf 0e3d a259 0780 4caa 70bd
000003d0: 9a54 1eb7 a841 023d cbc4 c7bc 796b 4bbd
000003e0: 5f4d 0000 c0be 0200 5e06 19bd e145 203c
000003f0: 6084 1bbd 2398 4a3d 7c3d 3b80 fd96 53bd

fc2.bias f4 [64]
-0.043858703 0.019796748 -0.014142999 0.014339526 0.029039003 0.103857875 -1.9921575e-19 0.06923991
-0.002407322 0.052789282 0.033390965 -0.05279389 -0.04452177 -0.02693038 0.055128794 0.022198867
0.072979674 -0.018718844 0.002356741 0.027363578 0.0025106082 3.872055e-39 0.033909556 0.055905454
0.019435784 -8.477565e-06 -0.0010880036 0.059115928 0.015925873 0.0070801745 0.08072394 0.0018880747
-0.017703034 0.011688909 -0.03332385 0.08690046 -0.02069339 -0.00039279033 -0.033487648 0.045029398
0.08504327 -0.00537931 0.032158937 -0.009712771 -7.9980515e-07 0.03687919 -0.023509974 0.018372372
-0.03660341 0.0727255 0.05370597 -0.057884052 -0.031445187 0.049805697 0.009718569 -0.024731295
-0.008490485 -0.024754837 0.03355952 0.034068495 -0.00802704 0.043771848 0.051503856 0.04403679
00000000: 2fa5 33bd ca2c a23c 0ab8 67bc 55f0 6a3c
00000010: 34e3 ed3c 70b3 d43d 4431 6ba0 a7cd 8d3d
00000020: 29c4 1dbb 9339 583d f7c4 083d 683e 58bd
00000030: 765c 36bd 1a9d dcbc bbce 613d 66da b53c
00000040: 5e76 953d 4358 99bc 8e73 1a3b 9529 e03c
00000050: 0489 243b b729 2a00 bfe4 0a3d 1efd 643d
00000060: cb37 9f3c dd3a 0eb7 589b 8eba 8b23 723d
00000070: fa76 823c cf00 e83b 9852 a53d 4679 f73a
00000080: f405 91bc d682 3f3c 977e 08bd def8 b13d
00000090: 2f85 a9bc 6def cdb9 582a 09bd bf70 383d
000000a0: 2a2b ae3d ec44 b0bb 17b9 033d 5022 1fbc
000000b0: 31b2 56b5 a20e 173d fd97 c0bc a881 963c
000000c0: 75ed 15bd 1bf1 943d cbfa 5b3d d417 6dbd
000000d0: abcc 00bd 0f01 4c3d a23a 1f3c 4999 cabc
000000e0: ad1b 0bbc a8ca cabc b575 093d 688b 0b3d
000000f0: d983 03bc 1c4a 333d b5f5 523d ec5f 343d

fc3.weight f4 [1, 64]
-0.07087925 0.06202216 0.04180245 -0.06304615 -0.0007688759 0.13336082 3.73418e-40 0.08607052
-0.004624806 0.093649805 -0.24042355 -0.048873134 -0.044017248 -0.032978877 -0.05387218 0.10352962
0.11956165 0.09129991 -0.042970117 0.09170145 0.13788281 7.028388e-08 -0.10520734 0.14439313
-0.043604467 3.4257115e-05 -0.00866771 0.03758816 -0.017137038 -0.009848682 0.027764961 -0.00077574066
-0.09372548 -0.0049905987 -0.06826846 0.033827882 0.012482888 -0.00048449123 -0.04293296 -0.049341224
0.104566954 -0.1037904 0.07250657 0.042305123 -0.009645447 0.107210524 0.025474498 0.045842756
0.0031864345 0.07281266 -0.27533674 -0.07598593 -0.08440874 -0.027699213 -0.22640608 -0.025344511
0.06945272 0.057541534 0.05638558 0.11168203 -0.06482397 -0.09136776 -0.10283035 -0.04551718
00000000: 2429 91bd f30a 7e3d 0c39 2b3d 571e 81bd
00000010: 638e 49ba bd8f 083e f010 0400 be45 b03d
00000020: af8b 97bb 78cb bf3d 9731 76be 322f 48bd
00000030: 6e4b 34bd dc14 07bd 13a9 5cbd 5607 d43d
00000040: bddc f43d 72fb ba3d 6f01 30bd f8cd bb3d
00000050: 2731 0d3e f9ee 9633 f276 d7bd cbdb 133e
00000060: 999a 32bd 4caf 0f38 0303 0ebc 0bf6 193d
00000070: f962 8cbc 5e5c 21bc 5873 e33c 135b 4bba
00000080: 25f3 bfbd 2d88 a3bb 56d0 8bbd 1b8f 0a3d
00000090: 0785 4c3c 5003 feb9 79da 2fbd 061a 4abd
000000a0: 3327 d63d 1090 d4bd 537e 943d 2348 2d3d
000000b0: f007 1ebc 3191 db3d e5af d03c 9dc5 3b3d
000000c0: 80d3 503b ce1e 953d f0f8 8cbe 839e 9bbd
000000d0: 7dde acbd 76e9 e2bc ffd6 67be 4b9f cfbc
000000e0: 3a3d 8e3d acb0 6b3d 91f4 663d 8cb9 e43d
000000f0: 6ec2 84bd 051f bbbd b898 d2bd 3970 3abd
