models/best_rdkit_featurizer.pth (torch, 276692 bytes, 5 tensors)

fc1.weight f4 [256, 202]
000000 cb 19 83 bd ad 29 82 3c 7e 56 8d 3b fd aa de 3c
       -0.06401404 0.015889013 0.004313289 0.027181143
000010 28 47 21 bd a8 5e 05 3d 93 91 b0 bb 9c a4 e2 bc
       -0.0393745 0.032560974 -0.0053884475 -0.027666382
000020 ce e9 94 3c 53 70 58 3d 24 ef d4 bc 16 f5 b8 bc
       0.018177893 0.052841496 -0.025992937 -0.022577804
000030 f6 68 93 bc ab 74 3e 3d a3 b2 ee bc 70 ad 05 bd
       -0.017994385 0.046497982 -0.029137915 -0.032636106
000040 a6 5f d0 3c 7b 68 4e 3d fc f2 47 bd 67 65 fd bc
       0.025436234 0.05039261 -0.048815712 -0.030932141
000050 75 44 8f bd e7 a7 8e 3c 37 5e 98 3c 4b c1 a4 bc
       -0.06995479 0.017414046 0.018599613 -0.0201117
000060 4c f1 79 bd 31 66 67 bd b0 d7 6c bd 24 84 33 bd
       -0.061021134 -0.05649394 -0.057822883 -0.04382719
000070 c7 94 df bc cf ee d2 3c 8f c5 f6 3c 7a 48 8a bc
       -0.027292622 0.025748638 0.0301235 -0.016880263
000080 84 fe 85 bd 2b 22 bc bb f8 57 5c 3d fd 2e 62 3c
       -0.06542686 -0.005741378 0.05379483 0.013805148
000090 d9 37 92 bd be a8 24 3d 4d 55 37 bc 0f 86 15 bd
       -0.07139558 0.040199988 -0.011189771 -0.0365048
0000a0 65 e4 68 3d 35 3a 5c 3d 0d 14 6a 3d b1 1e 49 3c
       0.05685844 0.053766448 0.05714803 0.012275384
0000b0 1d b3 f1 bc 0b 39 e9 3b 69 ba c6 bc 3e c9 0c bd
       -0.029504353 0.0071173958 -0.02425881 -0.034371607
0000c0 c0 5a 24 3d 16 0c 7f bd af 62 8e bd 5b bc 27 bd
       0.04012561 -0.062267385 -0.06952416 -0.040951114
0000d0 84 c3 8d 3d 8d 34 c5 bc 5f 76 6d bd ea 02 35 3d
       0.06922057 -0.02407291 -0.057974216 0.044192232
0000e0 89 fe e9 3c a3 44 99 3c 8f 42 32 bd 67 03 17 bb
       0.028563755 0.018709486 -0.043520506 -0.00230428
0000f0 d0 46 c0 3c 00 d2 e6 3c 28 33 ea 3c 77 19 d4 b9
       0.023471266 0.028176308 0.028588846 -0.00040454764
000100 09 6a 24 bd 24 61 3d bb 30 69 76 3d f9 24 4e 3c
       -0.040140186 -0.0028897012 0.06015891 0.012582057
000110 94 db 39 3d ea 13 08 3c fc 60 71 3d e2 2d 44 bd
       0.04537542 0.008305529 0.058930382 -0.04789532
000120 d8 5e 2d 3d 7c 19 39 3d 6c 5b c0 bc 54 d0 31 bd
       0.04232678 0.04519032 -0.023481093 -0.043411568
000130 5a 8d 81 3c 6d 6a 45 3c 6d c0 63 bd a8 91 61 ba
       0.015814472 0.0120493 -0.055603433 -0.00086047733
000140 69 46 39 3d b8 87 47 bb a5 6a 67 bd 86 66 12 bc
       0.045233164 -0.0030445885 -0.05649819 -0.008935576
000150 45 fc 86 3d 5a d8 79 3d 1c 2c f3 3c d0 88 8d 3c
       0.06591085 0.060997345 0.029684119 0.017277151
000160 0f 43 f0 bc 51 1a a3 bc aa c9 62 3c 0b 93 30 3c
       -0.029328851 -0.01991001 0.013842026 0.010777245
000170 51 e1 8e bd dc 39 67 3d a6 00 3e 3d 60 03 81 bd
       -0.069765694 0.056451663 0.046387337 -0.06299472
000180 b5 cc 82 bd e7 37 52 3c dd 0b 13 3d 23 60 ab bc
       -0.06386701 0.012830711 0.035899986 -0.020919865
000190 bb e0 05 3d c3 32 9d 3b ba c4 ec 3c 0b 4c 81 bd
       0.032685023 0.004797311 0.0289024 -0.06313332
0001a0 04 ea 32 bc 2f d7 fd 3c 43 14 1d 3d 03 09 45 bc
       -0.0109200515 0.030986397 0.0383494 -0.012026074
0001b0 71 b1 17 3d a4 e6 5d bd 6e 53 b4 bb 77 ad c2 bc
       0.037034456 -0.054175034 -0.0055031097 -0.023764355
0001c0 ed 54 4f 3d 43 ef f0 bc ed d3 69 bd 6c ea 7e 3d
       0.0506181 -0.029410964 -0.057086874 0.06223528
0001d0 7b 9b e4 3c d1 93 99 3c 6a ee 5d 3d d4 3f 50 3b
       0.02790617 0.018747242 0.054182447 0.0031776326
0001e0 42 1d aa bc 28 31 95 bc cf 4a e5 3c f4 77 51 3d
       -0.020765904 -0.018211916 0.027989773 0.051139787
0001f0 9d a0 44 3d b6 e7 65 3d b8 ac cd 3c 01 2d 8f 3d
       0.048004735 0.05612918 0.025106773 0.06991006
000200 be 6c 7e 3d ca 86 eb bb 03 39 cd 3c ae 25 62 bd
       0.062115423 -0.007187699 0.0250516 -0.055211715
000210 5f f3 b1 bc e0 07 32 3d 53 cf 46 3c 08 d0 28 bd
       -0.021722494 0.04346454 0.012134391 -0.04121402
000220 76 4c 57 3d 61 e6 c1 3c 3c 15 e4 3b 48 9c 96 3c
       0.052563153 0.023669424 0.006960539 0.018385068
000230 72 5a eb bc 66 55 b2 bc 29 29 bf bc 4b 54 44 bd
       -0.028729651 -0.021769237 -0.023335056 -0.04793195
000240 f4 e2 12 bd 1a 13 87 bd 5e 23 c7 bb 34 7e be bb
       -0.03586097 -0.0659544 -0.006077214 -0.0058133844
000250 cf 65 67 bc aa 1c 01 3d a4 f7 08 bd 30 e5 b8 bc
       -0.014123394 0.031521477 -0.033439294 -0.022570223
000260 d3 14 82 bd a4 08 73 3d bd a6 00 3d 30 cc fa 3b
       -0.06351628 0.059334412 0.031409014 0.0076537356
000270 0b 11 74 3d a7 0a be 3c 98 c1 e7 ba 5e 9a 8d bd
       0.059586566 0.023198439 -0.0017681597 -0.06914209
000280 2f 1e 32 3d f7 b1 a6 bb d1 7f f2 3c 48 0c 3a bd
       0.043485817 -0.005087133 0.029601963 -0.04542187
000290 ac 22 1a 3d 9b a6 6a 3d 5f 2c 1a 3c 5a fe 4d bd
       0.037630722 0.057287794 0.009409993 -0.050291397
0002a0 28 6c 47 bc ca 4c f7 bb 8a 53 f1 bc 43 aa 82 3d
       -0.012171783 -0.0075469958 -0.02945878 0.06380131
0002b0 e8 9a 88 3d c8 2b 67 bd 6f 26 41 bd 63 1a 5f 3b
       0.06670171 -0.056438237 -0.047155794 0.0034042827
0002c0 f5 5e f6 bc 90 10 d4 3c 4c 79 50 3d 81 68 89 bd
       -0.030074576 0.025886804 0.050896928 -0.06709386
0002d0 ca fc 98 3c f2 1f 8a 3d 9b b8 5a 3c f9 41 34 3c
       0.018675227 0.06744374 0.013349677 0.011002057
0002e0 46 48 9f bc 75 e8 5b bd ca c7 aa bb ca 6e fb ba
       -0.019443642 -0.053688485 -0.005211805 -0.0019182798
0002f0 2a 22 c0 bc cf 5a 95 3c ad cf 7d 3d ea 5d 86 bd
       -0.02345379 0.018231777 0.061965633 -0.065608814
000300 8a fb df 3c d9 3e 8a 3d 66 92 50 3d 0d d5 3b bd
       0.027341623 0.067502685 0.050920866 -0.045857478
000310 34 61 f9 bb 51 60 ea 3c 89 13 70 bd 4b 58 88 bd
       -0.0076104645 0.02861038 -0.05861238 -0.066574655
000320 eb ae cd bb cc 0c 53 bd 28 66 94 3c 0e a7 f2 3c
       -0.0062769554 -0.051525876 0.018115118 0.029620674
000330 5e be 2f bc 46 97 d6 3c 91 0d 72 3c 97 55 95 bd
       -0.010726539 0.02619518 0.014773742 -0.072917156
000340 11 99 89 ba 1a 81 39 bd 2f 4a 50 3d 48 d0 47 3d
       -0.0010497888 -0.045289136 0.050851997 0.048782617
000350 b4 38 df bc ae 69 14 3c 36 97 41 bc 64 b8 1c 3d
       -0.027248718 0.009058399 -0.011815837 0.038261786
000360 e0 ec 93 bd 50 31 be 3a 27 58 b5 3c 04 46 ee bc
       -0.07222915 0.0014510546 0.02213676 -0.02908612
000370 e7 af 15 3d fc 1b 7f bd ff 72 5e bd b2 18 86 3b
       0.036544707 -0.062282547 -0.054308888 0.0040922994
000380 9d 45 49 bb dc 93 28 3d 26 9f 9e bc 90 73 3f 3d
       -0.0030711659 0.041156635 -0.019362997 0.04674107
000390 d6 41 b4 bb 20 2f ad bd b8 4f 31 bd d0 3c fc bc
       -0.0055010123 -0.08456254 -0.043288916 -0.030790716
0003a0 07 62 0c bc ff f6 81 bb 39 67 90 3c bb 2b 68 bd
       -0.008568293 -0.003966212 0.017627345 -0.05668233
0003b0 3e c4 83 bc 7b 0b 65 bd 2c 42 42 3d 27 2e 44 3d
       -0.016084787 -0.05591915 0.047426388 0.047895577
0003c0 1c cf 75 3d 7f a1 22 bd 6a 5f 2d bd f0 70 46 3d
       0.060011968 -0.039704796 -0.042327322 0.04844755
0003d0 c7 f3 c9 bc 82 24 09 bd 06 ab 38 3d c3 4f 02 bd
       -0.024652375 -0.033482082 0.045084976 -0.031814348
0003e0 cb 32 66 3c d5 84 d6 3c 3f 4e 70 bb c9 55 e6 3c
       0.014050196 0.026186386 -0.0036667732 0.028117077
0003f0 2c 0b 52 bd 83 f9 5f bd d0 ea a0 bd 84 f3 8e bd
       -0.051280186 -0.054681312 -0.07857287 -0.06980041

fc1.bias f4 [256]
000000 39 29 2f 3d ec 71 90 bc a7 94 58 bd c5 0f aa 3c
       0.042763922 -0.017632447 -0.05287614 0.020759473
000010 c8 ee 9c 3c 11 2c be bc 29 4a 8c bd da ad f7 bc
       0.019156829 -0.023214372 -0.068500824 -0.030234266
000020 f1 40 95 3b 1f 56 2b 3d 5a 46 c5 bd 41 51 db 3d
       0.0045548608 0.04183018 -0.09632559 0.10708857
000030 2b 1b 32 bd 00 eb 7f bd 6f e6 2c bb 92 81 4f 3d
       -0.04348294 -0.062479973 -0.0026382466 0.050660677
000040 51 ff 34 bd cb 2e 2f bc 00 9c b5 3c cd f7 aa bd
       -0.0441888 -0.010692309 0.022169113 -0.083480455
000050 fc cf a2 bd b2 e6 c4 3c 97 04 48 3d 49 74 d6 3c
       -0.07949826 0.024035785 0.048832502 0.026178496
000060 79 fb 82 bd b0 b3 26 3d df 51 60 3d 3c bf 84 3a
       -0.06395621 0.040698707 0.05476558 0.0010127793
000070 f6 b6 87 3c 02 3a 68 bd ae 4c fe 3c e6 a4 89 3d
       0.016566735 -0.056695946 0.031042423 0.06720905
000080 b0 f4 97 3a ec b9 0c 3d fa 12 1e 3d 0a b5 c7 bb
       0.0011593308 0.034356996 0.038592316 -0.0060945796
000090 22 44 8c bd 16 e0 9f bd c3 f1 19 bd a2 5f 2c 3e
       -0.06848933 -0.07806413 -0.037584078 0.16833356
0000a0 84 71 86 3d 36 2b 13 3e b0 ca bd bd 56 c3 a6 bd
       0.0656462 0.14371952 -0.09267175 -0.08142726
0000b0 8b 27 a3 bb e3 c9 a8 3d b3 b1 91 bd c9 c1 17 bd
       -0.004979079 0.08241632 -0.071139716 -0.037050042
0000c0 88 da 5d bc dd 6c c4 bc 7e fc e5 bc 3a f1 85 bc
       -0.013540871 -0.023977691 -0.0280745 -0.016350377
0000d0 14 7a 9d bc a2 59 99 bd d8 70 60 bc f4 36 23 3e
       -0.01922325 -0.07487799 -0.013698779 0.15938932
0000e0 70 13 93 bc 3b 72 52 3d 5d 5f 95 bc 4b 50 1b 3d
       -0.017953604 0.05137847 -0.01823395 0.03791837
0000f0 0f dc 8d bd 1e 8e dd bc 65 8b d6 bd 1c 9a 85 bd
       -0.069267385 -0.027045306 -0.10475806 -0.06523535
000100 6d 28 fc 3b e8 ca fb 3d 8f b2 ac bd c5 46 fd bc
       0.007695249 0.12294561 -0.08432495 -0.030917535
000110 05 13 c9 bd 6a 2c eb bd 51 b0 75 bd 85 a8 43 3d
       -0.09818081 -0.11483081 -0.0599826 0.047768135
000120 14 67 97 3c 59 08 99 bd 3d af a0 3d 6b 5c 10 3c
       0.018481769 -0.07472295 0.07845924 0.008811097
000130 24 ff 3f 3e 5f 76 1e bc 64 2a 89 3c e7 7c ce bc
       0.18749672 -0.009671777 0.016743846 -0.025206042
000140 bb b5 7b 3a 73 49 42 3c 21 53 7b bd eb 63 d8 3c
       0.000960197 0.011858332 -0.061358575 0.026414832
000150 f1 cf b0 3d dd 03 03 3d 44 d1 de 3c 3c 02 11 3d
       0.08633412 0.031986106 0.027199395 0.03540252
000160 c0 cf 64 bd 58 10 8b 3b d4 a9 45 3e f2 a0 b4 3c
       -0.05586219 0.0042438917 0.19303066 0.022049401
000170 7f 11 5e bc 01 5e 81 bd d1 5e bc 3c 86 17 83 bd
       -0.013553976 -0.06316758 0.02299443 -0.06400971
000180 26 d4 ec bc ec 40 98 bd e5 53 d6 ba ed 32 8f 3d
       -0.028909754 -0.07434258 -0.0016351907 0.06992135
000190 32 4b 87 bd 80 63 60 bd cc d9 37 3e 6e 54 3a bd
       -0.06606139 -0.05478239 0.17954177 -0.045490675
0001a0 db be 35 bd 39 ec 73 3d 7c b6 0a 3e 65 1b 39 bd
       -0.044371467 0.05955145 0.13546175 -0.04519214
0001b0 6d e5 d1 3c ef 74 85 3d d4 c5 8c bc 49 05 c3 3c
       0.025622094 0.06516444 -0.017184176 0.023806231
0001c0 e9 3d ad bb a2 cd 0e 3d 82 65 69 3d c8 0b 8d ba
       -0.0052869213 0.034864075 0.05698157 -0.0010760957
0001d0 9d d9 a2 bd d2 88 3f bc 0d 82 2e 3d 08 a1 92 bc
       -0.07951663 -0.011690335 0.042604495 -0.017899051
0001e0 d2 11 6c bc 00 74 40 bc d9 8b 26 3d 4a bc 72 3c
       -0.014408546 -0.011746407 0.040660713 0.014815399
0001f0 01 0f 63 bd e2 af a5 3b d3 a5 1d 3d df ee 2b 3d
       -0.05543423 0.0050563673 0.03848822 0.041975852
000200 c9 fe b5 bd f5 c3 71 3b 4d 08 e8 3c c2 14 23 bd
       -0.08886487 0.003689048 0.02832427 -0.039814718
000210 90 8a 60 3d b4 99 f1 bc 0d 3c 72 3d 2a ac 77 bc
       0.054819643 -0.029492237 0.0591393 -0.015116731
000220 08 b4 03 bd a4 26 9e 3d 3c 13 88 3d 07 7e 3f 3d
       -0.032154113 0.07722214 0.06644294 0.04675105
000230 fc 83 1b bc d3 4b 82 bd ed 6f 46 bd c4 88 42 bd
       -0.009491917 -0.063621186 -0.048446584 -0.04749371
000240 f3 57 b8 3d f8 b1 27 3d 0a 4f 69 3c 13 24 36 bc
       0.0900115 0.04094121 0.014240036 -0.011116999
000250 ee 65 e3 bc 38 5d de bc ae f4 00 3c 3a 2c 76 bd
       -0.027758565 -0.02714406 0.007870836 -0.06010077
000260 b0 32 80 3d 83 6b 93 bc e7 08 9c 3c 3f f7 bb 3c
       0.06259668 -0.017995602 0.019047214 0.022945045
000270 9d b9 6f bc 10 98 d8 3d 0a 56 5c bd 0b 2b 04 3d
       -0.014631656 0.105758786 -0.05379299 0.03226761
000280 43 17 3c bd 3f 93 e7 bc e2 43 51 bd 72 00 b8 3b
       -0.04592062 -0.028268455 -0.05109013 0.0056152875
000290 98 4c 10 3c 36 e3 e0 3b 1d 0d 1f ba 41 68 b8 bc
       0.008807324 0.006863023 -0.00060673227 -0.02251065
0002a0 43 e8 83 bd fb c8 5e 3c c5 65 0e bd 8b 2b 7a 3c
       -0.06440785 0.013597722 -0.034765024 0.0152691705
0002b0 25 73 dd 3d b4 a8 07 3d fa d7 5c bd 9d de 49 bd
       0.10812978 0.033119872 -0.05391691 -0.049284566
0002c0 eb af c1 3c e6 15 73 3d 94 f7 1e 3d 49 0b c4 bc
       0.023643455 0.059347056 0.038810328 -0.023931162
0002d0 e8 95 33 3b 86 0d 2a 3d 6a 9d 8b bd 28 9c 13 3e
       0.0027402584 0.041516803 -0.06817134 0.14415038
0002e0 ab 61 6c 3d 88 40 dd 3c f7 3f 86 bd 60 81 e8 3c
       0.05771033 0.02700831 -0.06555169 0.028382003
0002f0 07 4d 38 bd b7 1c 3d bd 34 91 2a bd 1e 00 4f 3c
       -0.044995334 -0.046169963 -0.041642383 0.012634305
000300 24 aa db 3c b9 54 2b 3c 2e fc 38 3e db 5f 8d bd
       0.026814528 0.010457211 0.18064949 -0.069030486
000310 d7 e5 23 3d 26 3a fd bb a6 92 c3 bd 75 67 a1 3d
       0.040014114 -0.007727879 -0.09549455 0.07881061
000320 34 b9 5e bd 21 e6 13 bd e2 ad 0d 3d 40 ea af 3c
       -0.054375842 -0.03610814 0.034589656 0.021474004
000330 18 ec 1c 3c 79 9f b7 3a 64 1c d7 bc 42 e0 45 bd
       0.0095777735 0.0014009319 -0.026258655 -0.048309572
000340 16 44 8c 3c 3f ac 6a bd 6b 29 21 3d f1 c2 20 bd
       0.01712231 -0.057293173 0.03934614 -0.03924841
000350 e0 4a 14 3d e7 2e 12 bd 32 c1 54 bc 03 14 46 bc
       0.03620422 -0.03568926 -0.0129855145 -0.012089732
000360 c9 a8 48 3d 5c 50 65 bd b1 1c 52 3d 5d 63 18 bd
       0.04898909 -0.05598484 0.051296894 -0.037204135
000370 50 9d 70 bd 1b a5 36 bd 67 13 e3 3b 31 94 5c 3e
       -0.058743775 -0.04459105 0.006929803 0.21540906
000380 88 f8 8b 3c ae 47 53 3d e9 40 9e bd 0b b2 2c 3b
       0.017086282 0.05158203 -0.077272244 0.002635124
000390 9a cd a7 bc 00 f2 4f bd c6 15 23 bd a4 af 60 3b
       -0.02048378 -0.0507679 -0.039815687 0.0034284377
0003a0 8f 05 43 3e 32 4b 70 bc 88 08 bf 3c e1 c2 85 3c
       0.19045089 -0.014666365 0.023319498 0.016328277
0003b0 98 50 fd bc 04 fd 52 3e fe b9 00 3d 50 c3 0b bc
       -0.03092222 0.2060433 0.031427376 -0.008530453
0003c0 d0 d4 12 3a 7f fa 80 3c 54 e1 83 3d ba ad 8c bd
       0.00056011695 0.015744446 0.06439462 -0.06869073
0003d0 9b 25 62 bd 87 d7 64 3d 33 5f 22 bd 72 e5 4d bd
       -0.055211645 0.055869605 -0.03964157 -0.050267644
0003e0 1e c0 9b bb 7e 7d b2 bd d1 87 37 39 24 ca 3a 3c
       -0.0047531268 -0.08715342 0.00017502836 0.011400733
0003f0 c9 2e 2f 3d e1 4f 87 bb 00 91 02 bc 1c 8f 12 3d
       0.042769227 -0.0041293954 -0.007969141 0.03578101

fc2.weight f4 [64, 256]
000000 56 5b 58 bd 39 58 90 3c 56 df 36 bd 52 cb 2f bd
       -0.05282148 0.017620193 -0.044646583 -0.04291851
000010 71 a2 64 bc 40 38 45 3d df 51 7d 3c 84 40 47 bd
       -0.013954745 0.048149347 0.015461414 -0.04864551
000020 48 34 d2 3d d2 93 13 bd 24 c2 57 3d c0 44 87 b9
       0.10263878 -0.036029644 0.05267538 -0.0002580043
000030 b5 43 87 3c dc 05 8a 3c c5 f3 46 3b c7 71 2d bd
       0.016511777 0.016848497 0.00303577 -0.042344835
000040 31 e0 0f 3d 92 ce cf bc 2c a7 11 3d 71 cb 40 3c
       0.035125915 -0.025367055 0.03555982 0.011767254
000050 a8 97 e3 3c d1 30 ba bd 08 06 7d 3d 65 05 a1 3b
       0.027782276 -0.09091342 0.06177333 0.004913973
000060 70 d1 1b bd aa d4 0c 3d c1 23 fc bd 14 3c 87 3d
       -0.038041532 0.0343825 -0.12311507 0.06603256
000070 5c d2 43 3d 00 c4 99 bb a5 d2 39 bd 00 f8 b8 bd
       0.047808036 -0.0046925545 -0.045366902 -0.09031677
000080 ad 5b 00 3d b9 fe 4c 3d 33 9a a3 bb b3 31 88 3d
       0.03133743 0.05004761 -0.004992747 0.066501044
000090 ea ff 08 3d c5 83 a9 3c 64 32 26 bd 32 bf b0 bd
       0.033447184 0.020692715 -0.0405754 -0.086302176
0000a0 ac 0c 19 bd 91 4a c0 bd 33 15 a0 3c 95 e6 91 bc
       -0.0373656 -0.093892224 0.019541359 -0.017810145
0000b0 a9 5b 27 bc 2c 32 04 bd bb f7 26 3d 24 de 06 bd
       -0.010214725 -0.03227441 0.040763598 -0.032926694
0000c0 35 c0 06 bd 91 80 9c 3d e4 bb 6e 3d d0 83 ee bc
       -0.032898147 0.076417096 0.058284655 -0.029115587
0000d0 93 03 46 bd ac ac b2 3c fc 53 3c 3d 99 d2 7a bd
       -0.048343252 0.021810852 0.04597853 -0.061235998
0000e0 d0 69 93 bb a0 5d 34 bd d4 b4 d8 bc 65 73 f0 bd
       -0.004498698 -0.0440346 -0.026453413 -0.1174076
0000f0 84 c4 d6 bc 60 34 05 ba a5 99 af 3c 8a 62 62 bd
       -0.026216753 -0.0005081352 0.021435568 -0.055269755
000100 1f ae 30 bc 2e ee 45 3d 24 a7 5d 3d 7c a4 9d 3c
       -0.010783701 0.04832285 0.054114476 0.019243471
000110 29 38 be 3d 30 33 f7 3c 7e a8 04 3d 26 38 09 bd
       0.092880554 0.030175775 0.03238725 -0.033500813
000120 20 5d a0 bb 8c 74 49 3d a1 56 7f bd 00 e0 c9 bc
       -0.004893914 0.049183413 -0.062338475 -0.024642944
000130 ac 79 53 bd 1d 39 32 3d db 22 36 3d 92 dc 4f 3c
       -0.051629707 0.0435115 0.044466835 0.012686865
000140 87 a8 8d bc 44 43 0a bd 00 f0 c4 b7 ce c5 8a 3c
       -0.017292274 -0.033755556 -2.347678e-05 0.016940024
000150 e7 1d d4 bb 8e f6 97 bc bc 25 4f 3d 36 4f 60 3c
       -0.006473291 -0.018550184 0.050573096 0.01369076
000160 e7 33 3c 3b 68 59 19 bc 15 9a 54 be fc c4 c1 3c
       0.002871746 -0.009359695 -0.20761903 0.0236535
000170 57 5e 18 bd c8 27 02 bd ff 4a 0c bb 48 91 3d bc
       -0.037199344 -0.03177622 -0.0021407006 -0.011570282
000180 8c 87 a1 bc 1b 7b 68 3c ed 1d 36 3d 3c 96 12 bd
       -0.019717954 0.014189507 0.044462133 -0.035787806
000190 b4 0f 37 3d a9 6d ea 3c 30 b3 b4 bd 29 0d 15 bc
       0.04469271 0.028616743 -0.0882324 -0.009097376
0001a0 7e 41 7b 3d 3c df 4c bd bb a9 1b be 2c 9a 16 bd
       0.061341755 -0.05001758 -0.15201466 -0.036768124
0001b0 85 3e a0 bc d4 a1 c6 bc 08 bf 81 3c 4b 3d dc bc
       -0.019561062 -0.024247088 0.015838161 -0.026884696
0001c0 6c 80 3a 3d 87 f9 82 bd be dc 40 bd 00 07 5c 3a
       0.04553263 -0.0639525 -0.047085516 0.0008393377
0001d0 d2 02 60 3d 37 b1 4c bd 5c f8 32 3d 75 6a 18 bd
       0.05469019 -0.049973693 0.043693885 -0.0372109
0001e0 d4 be 4a 3d 1a f8 7c bc d8 68 37 3d d4 d4 af 3c
       0.049498394 -0.015440011 0.04477772 0.021463789
0001f0 7a 79 43 bd ef a8 54 3c 86 06 1c 3d 7a 5f 55 3d
       -0.04772327 0.01297973 0.03809216 0.052093007
000200 88 6a 6d 3d 58 93 1e 3d 82 ab ba 3c 68 8e ee bc
       0.057962924 0.038714737 0.02278686 -0.029120639
000210 40 ce d0 3c 68 36 26 bc b0 c5 6d bc 9c 86 56 3d
       0.025488973 -0.010144807 -0.014512464 0.052374467
000220 80 9f 64 bb 94 8a 0e be 90 85 8e 3c c7 72 53 bd
       -0.0034885108 -0.13920051 0.017397672 -0.051623132
000230 bd 51 07 3d 11 3b c6 3b 40 60 da 3a 58 e0 76 bd
       0.033036936 0.0060495217 0.0016660765 -0.060272545
000240 53 91 56 3e e2 36 27 3c c1 00 4e 3d 3c ee 8c bc
       0.20953874 0.010205956 0.050293688 -0.017203443
000250 54 a3 68 bd 63 aa 15 bc fa bf a1 bc f0 a6 08 3c
       -0.056796387 -0.009134862 -0.019744862 0.008340582
000260 b8 db 18 3d 80 06 f6 bb c2 f5 51 3d 78 93 0a 3c
       0.037318915 -0.007508099 0.051259764 0.008458011
000270 ee 68 98 3d 47 3f 00 be ac 70 1d bd 88 7f b2 bc
       0.07441889 -0.12524138 -0.03843753 -0.021789327
000280 cb b4 d2 bc bc 75 9c 3c 56 f4 96 bc 18 be 7e bd
       -0.025720974 0.019099109 -0.018427055 -0.062193006
000290 a0 93 87 bb a7 b4 c1 3c 09 5a 77 3c e4 e8 77 bd
       -0.0041374713 0.023645712 0.01509715 -0.060524836
0002a0 ad 9e 5a 3d c0 90 73 bd 7c 92 9a bd 46 f3 84 3d
       0.05337398 -0.059464216 -0.07547471 0.06491713
0002b0 9c c2 7d bd 84 74 2a bd f6 fa 2c 3d da eb 24 bd
       -0.061953172 -0.041615024 0.042231523 -0.040263988
0002c0 7b 94 86 3b 00 ca 27 3d a4 04 67 3d 64 58 4b bd
       0.0041070557 0.040964127 0.05640091 -0.049644843
0002d0 e4 05 49 3d 9e ad 27 bd a0 b0 ef 3b 9d 5b 0f bd
       0.049077883 -0.04093706 0.0073147565 -0.03499948
0002e0 ca 85 12 3d 74 f1 01 3d ec 0c 34 3d d7 f0 f5 3c
       0.035772122 0.03172441 0.043957636 0.030022068
0002f0 b6 ae 51 3d 6b 48 b7 3b a2 64 0c 3d e0 7d aa 3b
       0.051192008 0.0055933497 0.03427566 0.0052029938
000300 80 e7 6c bd a0 e5 12 bc 3d 29 44 3b ea b8 ae bb
       -0.057837963 -0.00896588 0.0029931806 -0.005332102
000310 40 73 8a 3a 05 17 31 bd 81 79 4c 3d 42 8b 3b bd
       0.0010562912 -0.043234844 0.049920563 -0.045787103
000320 79 ee 97 3c 56 54 87 3d 8f 40 eb 3c b8 7c 5c 3d
       0.01854633 0.06607883 0.028717307 0.05382988
000330 15 bc f8 3c 6a 9d 08 bd d4 6e 3a 3d 0d bc 15 bd
       0.030363122 -0.033353247 0.04551585 -0.036556292
000340 2d fb 89 bb 5d cc b5 3c 0c 0b 21 bd 7e ea 43 3d
       -0.0042108507 0.022192175 -0.039317176 0.04783105
000350 c8 c5 4d 3d 17 6f 8c 3d ea f1 55 3d ed de 27 3c
       0.050237447 0.06857126 0.05223266 0.010246021
000360 4a 7d 5a 3d f4 bf 7f 3c 20 54 c8 3b cf 35 27 bd
       0.05334214 0.01560973 0.006113544 -0.0408228
000370 af ef ed 3c c5 71 00 3d 12 67 06 3c e3 d0 9d 3e
       0.029044954 0.0313585 0.008203285 0.3082343
000380 f6 b5 0d bd e6 71 26 3d f1 1c 6d 3d df 22 07 bb
       -0.03459736 0.040635966 0.05788893 -0.002062015
000390 4f 63 c1 bc 97 99 0c 3d ca 79 14 bd b5 e9 61 bd
       -0.023606924 0.034326162 -0.03624896 -0.05515452
0003a0 31 c0 24 bd 51 06 cb 39 f6 fd 7d bd bc 43 cd 3c
       -0.04022235 0.00038723883 -0.062009774 0.025056712
0003b0 42 6e 1c bd 59 b1 a1 bd 4e 95 5d bd 07 03 80 bc
       -0.038191088 -0.078951545 -0.054097466 -0.015626444
0003c0 87 82 61 3d 88 e8 23 bc 54 22 87 bd b2 8f 82 3d
       0.05505612 -0.01000417 -0.065983444 0.06375064
0003d0 ec 0a 4b 3d fc 0f cf 3c 47 e4 80 b8 36 f8 4c bd
       0.049570963 0.025276177 -6.1460356e-05 -0.0500414
0003e0 84 30 36 3d 7d 8f 86 3d ff 2c 4d 3e 3e 50 1c 3d
       0.04447986 0.06570337 0.20036696 0.038162462
0003f0 a0 26 25 bd 37 26 39 3b a4 7e 0d bd 98 d8 cc bc
       -0.04032004 0.0028251538 -0.034544602 -0.025005624

fc2.bias f4 [64]
000000 cd c3 61 bd c7 f4 e1 bc d3 12 92 bd 1f a2 a8 3c
       -0.05511837 -0.02758254 -0.07132497 0.020585118
000010 3a b3 ee bd ae 49 00 3d f5 ed 66 bd 2c e4 3f bd
       -0.116552785 0.031320266 -0.056379277 -0.04684846
000020 77 82 5e bd ec 65 6c bb 7b 01 5b bb 9a 15 14 bc
       -0.05432364 -0.0036071492 -0.003341763 -0.009038353
000030 13 11 17 bd 58 52 54 bc f2 9a 1b 3d b0 21 9e bc
       -0.036881518 -0.012959085 0.037989564 -0.019303173
000040 ff b5 2a 3d 6d be 96 bd 48 86 50 bd ef 9c a5 3c
       0.04167747 -0.073605396 -0.05090931 0.020216433
000050 f2 0f 29 3d 4d 87 09 bd 88 1f 45 3c 57 7e 44 bd
       0.041274972 -0.0335763 0.012031443 -0.04797205
000060 84 0e 7f 3d a9 b0 a2 3d d0 36 80 3c 29 22 22 bd
       0.062269703 0.079438515 0.015651137 -0.03958336
000070 ff 85 63 bd 52 99 21 bd f6 d7 91 3b d0 6a 43 bd
       -0.05554771 -0.03945286 0.0044507934 -0.047709286
000080 ae bc dd ba e3 f2 87 bd 83 a4 9c bb e4 bd e2 3c
       -0.0016917193 -0.06638124 -0.0047803535 0.027678438
000090 23 ba bb bc f7 12 79 bc 73 8f 31 3d 22 f5 25 bc
       -0.022915905 -0.0152022755 0.043349694 -0.010129245
0000a0 7f c5 0a 3d 3c 5c 1d 3d 53 70 23 3c 60 4a 87 3b
       0.033879753 0.03841804 0.009975511 0.0041287392
0000b0 f4 22 06 bc 5a da 50 3d ec 56 b8 3c ac 0f 78 bb
       -0.008187044 0.050989486 0.022502385 -0.0037851138
0000c0 b7 aa ae bc 74 05 63 bd 98 56 d3 bc 56 3a 9f 3b
       -0.021321638 -0.055425122 -0.025798127 0.004859249
0000d0 71 6e df 3b 1e 9c 8d 3e ed d7 ce bb 84 ff 42 bc
       0.0068185856 0.2765817 -0.0063123615 -0.01190174
0000e0 77 8e 35 bd 2c 0f 13 bb 14 66 0c 3d 89 a5 55 bc
       -0.04432532 -0.0022439463 0.034277037 -0.013039955
0000f0 bd af e6 3c 53 de a3 ba 9a 18 ec bb d2 72 56 bc
       0.02815997 -0.0012502171 -0.007205081 -0.013088899

fc3.weight f4 [1, 64]
000000 9a 70 fb 3d 19 7d df 3d 30 e4 8f 3c 5f bf 8e bc
       0.122773364 0.10912532 0.017564863 -0.017425237
000010 68 59 0f 3e f3 6c 5e 3d c3 c1 1d bd 87 7d 68 bd
       0.1399895 0.05430312 -0.038514864 -0.056760337
000020 fb fc 7c 3d 72 c3 88 3a de e5 81 bc af a3 cb bd
       0.0617647 0.0010434224 -0.01585668 -0.099433295
000030 11 e6 f1 3d 3e b4 9e bd 8c 53 12 bd ad 49 d3 bd
       0.1181146 -0.07749222 -0.035724208 -0.10316787
000040 cf 67 ec 3d 43 a7 11 3d ce 47 dc 3d 8e ea 89 3d
       0.115432374 0.035559904 0.10755883 0.06734191
000050 c9 97 a3 bd 38 21 97 bd de b7 bf 3d 89 0e 49 3d
       -0.07987935 -0.07379383 0.09361242 0.049086127
000060 ec 86 db 3d cc 4e 32 3e bb 60 ec 3c 2e 5c a8 bd
       0.10719094 0.17412871 0.028854718 -0.08220707
000070 72 2a 6f 3d 16 cf 9a 3d 37 30 39 3d 85 78 5d bd
       0.05839009 0.0755903 0.045211997 -0.054070015
000080 2a d2 8f 3c df be 83 bd 59 97 9f 3d ec c6 bf bd
       0.017556269 -0.0643289 0.07792539 -0.09364113
000090 b4 d3 a1 bd e7 df ac 3d 8d 60 fb 3d 2b ee a6 bd
       -0.07901707 0.084411435 0.12274275 -0.08150896
0000a0 1d 1e 90 3b 49 97 99 bd 57 32 1d 3d 34 5e 91 3d
       0.004398121 -0.074995585 0.038378086 0.07098046
0000b0 da 79 9f 3c 2a bd b3 3d 6e d7 79 3d b9 22 e2 bd
       0.019467283 0.087763146 0.060996465 -0.11041779
0000c0 b8 92 f0 3d 32 d7 90 3d 30 97 80 3d e9 da 87 bd
       0.117467344 0.07072295 0.06278837 -0.06633551
0000d0 b7 26 b6 3b f4 f9 2c 3e 81 c6 62 bc a3 97 85 3b
       0.0055588144 0.16892225 -0.013841272 0.0040769144
0000e0 22 78 d4 3d fb 6e be bd 50 5b 03 3e 48 54 0c 3d
       0.10374476 -0.092985116 0.12827802 0.034260064
0000f0 6a f2 8b 3b 72 f0 ea bc f3 8c a4 3b b2 55 02 3e
       0.0042708414 -0.028679106 0.0050216853 0.12728003
