models/model_initial.pth (torch, 875621 bytes, 60 tensors)

weight f4 [64, 9]
0	0xbe8a0bdf	-0.26962182
1	0xbe65c9b1	-0.2244022
2	0xbe5f594f	-0.21811412
3	0xbe1f58fd	-0.1556129
4	0x3e2119e7	0.15732537
5	0xbc5cc10a	-0.0134737585
6	0x3d9b8b6f	0.07594954
7	0x3d7a53fa	0.061115243
8	0x3dfab3f1	0.12241352
9	0x3d8e2b88	0.06941897
10	0xbed00696	-0.40630025
11	0xbda8f3bf	-0.08249616
12	0xbd5c32cb	-0.053759377
13	0x3e932919	0.28742293
14	0xbe570b46	-0.21000394
15	0x3dfee237	0.12445491
16	0x3de79853	0.113083504
17	0x3e30c91b	0.17264216
18	0x3ea72726	0.32647055
19	0x3efce9da	0.49397165
20	0x3d795bef	0.06087869
21	0x3ea27178	0.31727195
22	0xbd0d1db7	-0.034452166
23	0x3da7f170	0.082003474
24	0x3e05320c	0.13007373
25	0xbcf0adfd	-0.02937984
26	0xbebc0abf	-0.3672695
27	0x3e87cd44	0.26523793
28	0x3de2d1b4	0.11075154
29	0xbdea5438	-0.11441845
30	0xbe77237b	-0.24134628
31	0x3e2e0f30	0.16997981
32	0xbd4936dd	-0.049124587
33	0xbdfce790	-0.123488545
34	0x3e075a1c	0.13217968
35	0x3cc65d3a	0.024214376
36	0xbe7ccc20	-0.24687243
37	0x3ee43c93	0.44577464
38	0x3ec26550	0.3796792
39	0x3e8d1989	0.27558544
40	0xbe064be5	-0.13114889
41	0x3e9484b6	0.290075
42	0x3a3962a6	0.00070718897
43	0xbe7c45ee	-0.24636051
44	0x3d5d61fa	0.054048516
45	0xbe5c0f5c	-0.21490234
46	0x3e64b987	0.22336398
47	0x3e1a9603	0.15096287
48	0x3e99108c	0.29895437
49	0x3cb2c852	0.021824036
50	0x3e1860d6	0.1488069
51	0x3cbd1d9d	0.02308541
52	0x3e34a2a7	0.17640172
53	0x3e49ccc0	0.19707012
54	0x3dc6c533	0.097055815
55	0x3ead0006	0.3378908
56	0xbe4ae5f5	-0.19814284
57	0x3e3b5fd6	0.18298277
58	0x3e9c29dd	0.3050069
59	0x3ed0e169	0.40796974
60	0x3d8f7753	0.07005181
61	0xbdd67b7a	-0.1047277
62	0xbae33141	-0.0017333404
63	0xbe70a1e0	-0.2349925
64	0x3e362336	0.1778687
65	0x3ea5bc3b	0.3237017
66	0x3e90fe40	0.28318977
67	0x3e2c3390	0.16816545
68	0x3d96f6d4	0.073712975
69	0x3bace3ea	0.005276193
70	0x3d594464	0.053043738
71	0x3ebe55fe	0.37174982
72	0xbe0eb6f0	-0.13936973
73	0xbe23208b	-0.15930383
74	0x3e2bf943	0.16794305
75	0x3e792137	0.24329077
76	0xbe11be5d	-0.14232774
77	0x3c0fce1e	0.0087771695
78	0x3e1d1389	0.15339483
79	0xbe024f21	-0.12725498
80	0x3e1bbc92	0.15208653
81	0xbe1d4ad9	-0.15360583
82	0xbea88093	-0.32910594
83	0x3e2e51fe	0.17023465
84	0xbe463c75	-0.19359
85	0x3e4d8151	0.20068862
86	0xbc96737c	-0.018365614
87	0xbe8d73bb	-0.27627358
88	0x3db58c1c	0.08864614
89	0xbd9b0ca8	-0.07570773
90	0x3dd0c392	0.10193552
91	0x3e23abdd	0.1598353
92	0x3d932a89	0.07185847
93	0xbe433ce4	-0.19066197
94	0xbd76ce98	-0.060255617
95	0xbc381107	-0.011234528
96	0xbe37d892	-0.17953709
97	0xbdda4aed	-0.10658822
98	0xbe550fce	-0.2080681
99	0x3ebdaaf9	0.37044504
100	0xbd1c7960	-0.03820169
101	0xbe3c72da	-0.18403187
102	0xbe5eccca	-0.21757808
103	0xbc9f7a4f	-0.019467501
104	0xbe84ed8f	-0.25962493
105	0x3d9f5e50	0.077816606
106	0xbdd36ccb	-0.10323485
107	0xbf10d94b	-0.5658156
108	0x3ebe8507	0.37210867
109	0xbe6de6de	-0.232326
110	0x3edaa788	0.4270594
111	0x3e4b4faf	0.19854616
112	0x3ec9c6ff	0.39409634
113	0xbe1e27ef	-0.15444921
114	0x3e0c0d91	0.1367705
115	0x3e3cafe9	0.1842648
116	0x3e00df15	0.12585099
117	0xbe0e95c8	-0.13924325
118	0x3ef305de	0.47465414
119	0xbdee3072	-0.11630334
120	0x3e00423f	0.12525271
121	0x3e91a1b0	0.2844367
122	0x3dd85a8b	0.10564145
123	0x3dbc2ee2	0.0918863
124	0xbdc15b15	-0.09441201
125	0x3e58fedb	0.2119097
126	0xbe51a352	-0.20472458
127	0xbe443f0c	-0.19164675
128	0x3c9ac21c	0.018891387
129	0x3dd0b0ef	0.101899974
130	0x3d790145	0.060792226
131	0xbd81192c	-0.06303629
132	0x3e599973	0.21249942
133	0xbdfaffac	-0.12255797
134	0xbeb25087	-0.34827062
135	0xbd7cd309	-0.061724696
136	0x3e7f2ea5	0.24920137
137	0x3e336971	0.17520691
138	0x3e8efae0	0.27925777
139	0xbd861809	-0.06547553
140	0xbbe67bc7	-0.0070337984
141	0x3e8213d1	0.25405744
142	0x3da304c9	0.07959897
143	0x3ed5afea	0.41735774
144	0x3ea30296	0.3183791
145	0xbe9e49d7	-0.3091571
146	0x3c62608b	0.013816963
147	0xbdce0a1e	-0.100605235
148	0x3daef7a0	0.085433245
149	0xbea378a8	-0.3192799
150	0x3d49f07c	0.04930161
151	0xbe7cf849	-0.24704088
152	0xbd888ada	-0.06667109
153	0xbeaf8b47	-0.34285948
154	0x3d4e6996	0.050393663
155	0xbe9e2de8	-0.308944
156	0xbe5a84c3	-0.21339707
157	0xbd84cf15	-0.0648481
158	0x3b9a9cdc	0.004718406
159	0xbd961f91	-0.073302396
160	0x3d257eb3	0.040404033
161	0x3e56429d	0.20923848
162	0xbe8ef998	-0.279248
163	0x3e8c3d07	0.2739031
164	0x3ea04d26	0.3130886
165	0x3ea82cc2	0.32846648
166	0x3e872122	0.26392466
167	0x3f00b52c	0.50276446
168	0x3ebeebda	0.37289315
169	0xbe2bff2d	-0.1679656
170	0xbe78b993	-0.24289541
171	0x3be41b4d	0.0069612623
172	0xbebfc604	-0.3745576
173	0x3e09107c	0.13385195
174	0x3d8b3ec9	0.06799085
175	0x3e85f25e	0.26161474
176	0x3dbcc829	0.09217865
177	0xbd52e510	-0.051487982
178	0xbe47fd49	-0.19530214
179	0x3e2b3afb	0.16721718
180	0x3e8abaaf	0.27095553
181	0x3f30c2ee	0.6904744
182	0xbe0795e4	-0.13240772
183	0xbdfd0b49	-0.12355668
184	0x3d320b3c	0.043467745
185	0xbd914d1f	-0.07094788
186	0xbe269cc4	-0.16270739
187	0xbcc4a0fb	-0.024002543
188	0xbeb52263	-0.35377797
189	0xbdb6ceaf	-0.089261405
190	0xbb49a6a6	-0.0030769496
191	0x3d60aa74	0.054850057
192	0xbd504725	-0.0508491
193	0xbe799499	-0.24373092
194	0x3c7e9b97	0.015540025
195	0xbd820e02	-0.06350328
196	0x3e344b4d	0.1760685
197	0x3e854ae6	0.26033705
198	0xbd43420f	-0.04767042
199	0xbd67ecd2	-0.056622334
200	0xbd77aefd	-0.060469616
201	0xbe776945	-0.24161251
202	0xbe2dcd67	-0.16972886
203	0x3b9b821f	0.0047457363
204	0x3e060d7c	0.13091081
205	0xbe3700b1	-0.17871358
206	0x3cef1cbc	0.029188506
207	0x3e1a6d4b	0.15080754
208	0xbe0c0046	-0.1367198
209	0xbe6413a6	-0.2227312
210	0xbe63cf48	-0.2224704
211	0xbd55a365	-0.05215778
212	0xbebf558e	-0.3736996
213	0x3e947caa	0.2900136
214	0x3df984e8	0.12183553
215	0xbd7fe5a1	-0.06247485
216	0x3e9aa62f	0.30204913
217	0x3e34c9ad	0.17655058
218	0x3dc58f3a	0.09646459
219	0x3e925be8	0.28585744
220	0x3e5ce5e0	0.21572065
221	0x3d97c211	0.07410062
222	0xbe2ac07f	-0.16674994
223	0xbe1f75d2	-0.15572289
224	0xbe96643e	-0.29373354
225	0xbe039917	-0.12851368
226	0x3e8899ce	0.26679844
227	0x3e05b6f5	0.13058074
228	0x3e6c9b0e	0.23106024
229	0x3ea2b622	0.3177958
230	0xbd92f600	-0.07175827
231	0x3dcb1c59	0.09917516
232	0x3e5ab67b	0.21358673
233	0xbe84c1a2	-0.2592898
234	0xbe744174	-0.23853093
235	0xbe01be49	-0.12670244
236	0xbe7afd86	-0.24510774
237	0x3de79537	0.11307757
238	0xbe9a6ff8	-0.3016355
239	0x3b90fe89	0.004424874
240	0x3e31fb20	0.17380953
241	0x3cc3e11e	0.023911055
242	0xbc8a0e81	-0.01685262
243	0x3ea53b1c	0.3227166
244	0xbe449288	-0.19196522
245	0x3dbccaa5	0.09218339
246	0xbe8324ff	-0.25614163
247	0xbe8b5b63	-0.2721816
248	0xbe67633c	-0.22596449
249	0xbe47f338	-0.19526374
250	0xbe8fcb1f	-0.28084657
251	0xbe243ef7	-0.16039644
252	0x3d6daf53	0.05802853
253	0xbd75dc5e	-0.06002461
254	0x3e3baccc	0.18327636
255	0xbd0a777d	-0.03380536

bias f4 [64]
0	0x3dba86b1	0.091077216
1	0x3e2de0f7	0.16980349
2	0xbbe55213	-0.0069983094
3	0x3e1425ce	0.14467546
4	0x3d6c1222	0.05763448
5	0xbdbff099	-0.09372062
6	0xbdda3dff	-0.10656356
7	0x3e965780	0.29363632
8	0x3eb5ffda	0.35546762
9	0x3e0ea12f	0.13928674
10	0x3cc24237	0.023713214
11	0xbdefd4d0	-0.11710513
12	0xbe2e2462	-0.17006066
13	0x3d05ce16	0.032667242
14	0xbe506cb0	-0.20353961
15	0x3e660e54	0.22466403
16	0xbe8737b2	-0.2640968
17	0xbe823bf4	-0.25436366
18	0x3e86a5a1	0.2629824
19	0xbe5548ea	-0.20828596
20	0x3eaa1cab	0.33224997
21	0x3dda3dd1	0.10656322
22	0xbe3354f4	-0.17512876
23	0x3e2daf72	0.16961458
24	0x3e6302b9	0.22169007
25	0xbcaf6e0c	-0.02141478
26	0xbde08782	-0.10963346
27	0x3ec6d078	0.38830924
28	0x3e239357	0.15974174
29	0xbdfc4c50	-0.12319243
30	0xbe956d0e	-0.29184765
31	0x3e147495	0.14497598
32	0xbdfa8238	-0.122318685
33	0xbd866d34	-0.065637976
34	0x3a32af0a	0.0006816244
35	0xbe1a7067	-0.1508194
36	0xbe2c5420	-0.16828966
37	0xbba13fac	-0.0049209204
38	0x3e943897	0.28949425
39	0xbeae7341	-0.34072307
40	0xbe894da9	-0.26817062
41	0xbe6e7c3c	-0.23289579
42	0x3e84c9cd	0.25935212
43	0xbe257f5c	-0.16161865
44	0xbc27b26e	-0.010235412
45	0xbcea3483	-0.028589493
46	0x3e041451	0.12898375
47	0x3e5ef818	0.21774328
48	0x3e5ae3af	0.21375917
49	0xbd9a910a	-0.07547195
50	0xbe125fc9	-0.14294352
51	0x3ba9a832	0.005177521
52	0xbe67921b	-0.22614329
53	0x3eb634ec	0.3558725
54	0x3bed78d2	0.007247069
55	0xbe7f8514	-0.24953109
56	0xbe272622	-0.1632314
57	0x3e12dc36	0.14341816
58	0x3e0745a3	0.13210158
59	0xbea7d812	-0.32782036
60	0x3de5f22a	0.1122783
61	0x3cc97188	0.024590269
62	0xbe6b023a	-0.22950068
63	0xbdf65d94	-0.12029567

att_l f4 [1, 64]
0	0x3dc2f654	0.095196396
1	0x3e73d0c2	0.23810104
2	0xbcccf66f	-0.025019852
3	0x3e7db893	0.2477744
4	0xbdd9db0f	-0.10637485
5	0xbe4485c0	-0.19191647
6	0xbe1384e8	-0.14406168
7	0xbd91ea18	-0.07124728
8	0xbe9b42ed	-0.30324498
9	0x3d99d624	0.07511547
10	0x3dbcf444	0.092262775
11	0xbe323986	-0.17404756
12	0x3d855ebd	0.065122105
13	0xbd856c11	-0.06514753
14	0xbe282851	-0.1642163
15	0x3a92f54c	0.001121202
16	0xbe820ffa	-0.25402814
17	0xbe3253c4	-0.17414767
18	0xbe567920	-0.20944643
19	0xbe0a1578	-0.13484752
20	0x3aa88cd4	0.0012859353
21	0xbd199690	-0.037497103
22	0x3ecd8868	0.40143132
23	0x3d474193	0.04864652
24	0x3e46c7ca	0.19412151
25	0x3e195eeb	0.14977615
26	0x3e458701	0.19289781
27	0xbe4c9854	-0.19979984
28	0xbe694e60	-0.22783804
29	0xbdd1759b	-0.102275096
30	0xbdc7dc0d	-0.09758768
31	0x3e88f03a	0.26745778
32	0x3e8ea5b7	0.27860805
33	0x3e309894	0.17245704
34	0xbd77f76a	-0.060538687
35	0x3dafcffa	0.0858459
36	0x3c5b422c	0.013382476
37	0xbe55c587	-0.20876132
38	0x3c7b932e	0.015354915
39	0x3d785cbb	0.06063531
40	0x3e955445	0.29165855
41	0x3db9ae26	0.09066419
42	0x3e0123d8	0.1261133
43	0x3e2ecf21	0.17071201
44	0xbcedd8d2	-0.029034052
45	0x3dedd898	0.116135776
46	0xbdd1d069	-0.10244829
47	0xbe29462a	-0.16530672
48	0x3e27b4ad	0.16377516
49	0xbe13c367	-0.14430009
50	0xbdfd6753	-0.12373223
51	0xbc463707	-0.0120980805
52	0x3e7b66dc	0.24550956
53	0xbe3135f7	-0.17305742
54	0xbc6902cc	-0.014221858
55	0x3e52ba88	0.20578969
56	0xbeac56f4	-0.3366009
57	0xbe20b4d8	-0.15693986
58	0xbdc9fd0f	-0.0986272
59	0xbe3fef9d	-0.18743749
60	0x3e3ccc14	0.18437225
61	0x3d85812d	0.06518779
62	0x3dbdd1f4	0.09268561
63	0x3e4c1bbc	0.19932455

att_r f4 [1, 64]
0	0xbccc60bc	-0.02494847
1	0x3e1ca13c	0.15295881
2	0x3ceee77c	0.029163115
3	0xbe093e7e	-0.13402745
4	0xbd8da724	-0.06916645
5	0xbe148a0f	-0.1450579
6	0x3df6a1fb	0.12042614
7	0xbe7c3426	-0.24629268
8	0x3d5cdcf6	0.053921662
9	0x3d88bb93	0.06676402
10	0xbe3d2ef5	-0.18474944
11	0xbda63840	-0.081161976
12	0xbbd97025	-0.006635683
13	0xbe058bf3	-0.13041668
14	0x3df592b9	0.11990876
15	0x3d01d745	0.031699438
16	0x3e325cac	0.17418164
17	0x3e086e0c	0.1332323
18	0xbcbb9611	-0.022898706
19	0x3bee3527	0.00726952
20	0x3d8df39b	0.0693123
21	0x3a52f560	0.0008047428
22	0xbe06866c	-0.13137215
23	0xbddbc57d	-0.10731027
24	0xbe1a7a68	-0.15085757
25	0xbe74c605	-0.23903663
26	0xbde2d9c5	-0.110766925
27	0x3e8cc435	0.27493444
28	0xbe6c5b77	-0.23081766
29	0x3daea383	0.08527281
30	0x3db0b0ba	0.08627458
31	0xbc8d831a	-0.017274428
32	0x3d311d7f	0.04324102
33	0x3cfa6106	0.030563843
34	0x3e0c35ad	0.1369235
35	0xbe7ce8e6	-0.24698219
36	0x3e24a156	0.1607717
37	0x3e1c89a4	0.1528688
38	0x3d9ea9c7	0.07747226
39	0xbe521dcf	-0.20519184
40	0xbe0b8b6e	-0.13627407
41	0x3e345870	0.17611861
42	0x3e36df7e	0.17858693
43	0x3dda6d26	0.1066535
44	0x3dc10d47	0.094263606
45	0x3e8db9b1	0.27680734
46	0x3d35cba3	0.044383656
47	0x3c597e7b	0.013274784
48	0xbd34ede2	-0.044172175
49	0x3e217677	0.15767847
50	0x3bc57a25	0.0060265237
51	0xbe71b26a	-0.23603216
52	0x3d10c67b	0.035345536
53	0xbcbf2c8f	-0.023336677
54	0x3cdbef45	0.026847491
55	0xbc6543a6	-0.013993179
56	0xbcc292c5	-0.023751626
57	0x3c74d3d2	0.01494308
58	0xbcf23969	-0.02956839
59	0x3d6ccf83	0.057815086
60	0xbe2e106f	-0.16998456
61	0xbc9fcda6	-0.01950724
62	0xbe2b450e	-0.16725561
63	0xbe13c239	-0.14429559

bias f4 [64]
0	0x3d02ba12	0.03191573
1	0xbcd25599	-0.025675582
2	0xbd093680	-0.03349924
3	0x3ca9f8bc	0.020748489
4	0xbd045785	-0.032310028
5	0xbccbef08	-0.024894252
6	0x3d4c1791	0.049827162
7	0x3c9090cc	0.01764717
8	0x3d1ba024	0.03799452
9	0xbcf46df6	-0.02983759
10	0xbc85a0d6	-0.016312044
11	0x3cba81cb	0.022766968
12	0xbd1aedaa	-0.03782431
13	0xbcd5a4ec	-0.026079617
14	0xbd003b19	-0.03130636
15	0xbd166174	-0.036714032
16	0x3c9d7a0b	0.019223234
17	0xbc10eef5	-0.008846034
18	0x3cf51914	0.029919185
19	0xbcf88555	-0.030337015
20	0x3cdb0a16	0.026738208
21	0xbcb7cd9f	-0.022436915
22	0x3d2c1ac8	0.042017728
23	0x3d1ee0da	0.038788654
24	0x3d04ee89	0.032454047
25	0x3d08db87	0.033412483
26	0xbc9333df	-0.01796907
27	0xbd1a251d	-0.03763305
28	0xbcb1cc40	-0.02170384
29	0xbcb27e45	-0.021788726
30	0x3d383859	0.044975612
31	0x3d0a7a04	0.03380777
32	0xbcc7b71f	-0.024379311
33	0x3d288cf1	0.041150037
34	0x3cbe343c	0.023218267
35	0xbd1c2ee1	-0.038130645
36	0x3d2cc014	0.042175367
37	0x3ccd9dba	0.025099624
38	0x3d245007	0.040115383
39	0x3d28f615	0.041250307
40	0xbd16a5b5	-0.036779124
41	0x3cf47054	0.029838718
42	0x3c7c5234	0.015400458
43	0x3d0f46e7	0.034979727
44	0xbcdcd648	-0.026957646
45	0x3ceed028	0.029151991
46	0xbcb2723b	-0.021782985
47	0xbcd2be4f	-0.025725512
48	0x3d19adf8	0.037519425
49	0xbcb3550a	-0.021891136
50	0xbce87b8f	-0.02837923
51	0x3d0ad616	0.033895575
52	0x3d057c94	0.03258951
53	0xbcbf5799	-0.0233572
54	0xbd08f4d5	-0.033436615
55	0x3d244bf5	0.0401115
56	0xbd155a4a	-0.03646306
57	0x3c904aed	0.017613852
58	0xbcebc946	-0.028782498
59	0xbd14b184	-0.036302105
60	0xbd101860	-0.035179496
61	0x3cf9488d	0.030430103
62	0xbcf437bd	-0.029811734
63	0xbc942aec	-0.018086873

weight f4 [64, 67]
0	0xbcd76ffe	-0.02629852
1	0x3e40947c	0.18806642
2	0x3d80ca67	0.06288605
3	0x3d830018	0.06396502
4	0xbe363f09	-0.17797484
5	0xbdb0777a	-0.08616538
6	0x3e0bb77b	0.13644211
7	0x3cd3e240	0.02586472
8	0x3c03ef0b	0.008052598
9	0x3cf7dec7	0.030257596
10	0x3cb91c1f	0.022596417
11	0xbd228392	-0.039676256
12	0xbe5769c0	-0.21036434
13	0xbd97a4ff	-0.074045174
14	0x3d63b09a	0.055588342
15	0xbdef29ff	-0.11677932
16	0xbd2710ec	-0.040787622
17	0x3dff4271	0.124638446
18	0x3dcada6d	0.09904943
19	0x3e4a359e	0.19747016
20	0x3df5c712	0.1200086
21	0xbb8d5f78	-0.0043143593
22	0x3b005cfb	0.001958667
23	0xbcea64db	-0.028612545
24	0xbe07e9ac	-0.13272732
25	0x3d928de1	0.071559675
26	0x3d2a945a	0.041645385
27	0x3b3b1991	0.0028549174
28	0x3dbed10f	0.093172185
29	0x3c739bef	0.01486872
30	0xbca842b9	-0.020539628
31	0xbd055e1e	-0.03256046
32	0x3e4cba12	0.19992855
33	0x3c94b9df	0.018155036
34	0x3db26d2e	0.087122306
35	0xbd66aa28	-0.056314617
36	0x3d2fa9ab	0.042886417
37	0xbd33f2c2	-0.043932684
38	0x3dd0e1b1	0.10199297
39	0xbdf74480	-0.12073612
40	0xbe2e14fe	-0.17000195
41	0xbb80228e	-0.0039103692
42	0xbd408107	-0.04699805
43	0x3c1318a3	0.008978042
44	0x3dfd5279	0.12369246
45	0xbd8677be	-0.06565808
46	0x3dc25fa8	0.09490901
47	0x3d90ff9f	0.07080006
48	0x3cfb3190	0.030663282
49	0xbe4b0deb	-0.19829528
50	0xbd7196c6	-0.05898168
51	0x3e46522a	0.1936728
52	0x3d931aed	0.0718287
53	0xbe475f21	-0.19469883
54	0xbe41624c	-0.18885154
55	0x3cd3e0a9	0.025863962
56	0xbd096080	-0.033539295
57	0x3de89bf7	0.11357873
58	0x3c39d600	0.0113425255
59	0x3db44792	0.088027135
60	0xbe35cea8	-0.17754614
61	0xbb9e555e	-0.004831954
62	0x3d24587c	0.040123448
63	0x3c66eed2	0.014095025
64	0x3dd36c39	0.10323376
65	0xbd750e8a	-0.05982832
66	0xbcb5c26f	-0.02218744
67	0x3cf7b0b6	0.03023563
68	0xbdd253bd	-0.10269878
69	0x3e8d2f25	0.2757503
70	0x3e09a256	0.13440832
71	0xbd93df7c	-0.07220361
72	0xbd7e4a93	-0.06208284
73	0x3e434a3d	0.19071288
74	0xbc8fa37e	-0.017534014
75	0xbe0f6cce	-0.1400635
76	0xbdd125c3	-0.102122806
77	0x3d704f4e	0.05866938
78	0x3e431cc9	0.1905395
79	0xbd8890e6	-0.06668262
80	0xbce3ce1e	-0.027808245
81	0xbd14f8e5	-0.036370177
82	0x3c86dc17	0.016462369
83	0x3d08e8f7	0.033425298
84	0xbd7bc673	-0.061468553
85	0xbe010a93	-0.1260169
86	0x3db62878	0.088944376
87	0x3e6509d1	0.22367026
88	0xbd98be8f	-0.07458221
89	0xbd18d1df	-0.037309524
90	0x3dfad4be	0.122476086
91	0x3e2d726b	0.16938178
92	0xbe1ab774	-0.15109044
93	0x3c7c8524	0.015412603
94	0x3dc17aea	0.09447272
95	0x3e378b57	0.17924248
96	0x3de4279d	0.11140368
97	0xbd0bbf68	-0.034118086
98	0x3d46f567	0.048573878
99	0x3dfb8a1e	0.12282203
100	0xbd5a2684	-0.053259388
101	0xbda562aa	-0.08075459
102	0x3da2b67c	0.079449624
103	0xbde8bf2c	-0.11364588
104	0xbd01d05c	-0.031692848
105	0x3dcdc52d	0.10047374
106	0xbd5b94dc	-0.05360876
107	0x3b8bb550	0.0042635575
108	0x3cef00c6	0.029175173
109	0xbdd76daa	-0.10518964
110	0xbdbacb71	-0.091208346
111	0xbd606f71	-0.05479378
112	0xbd97ab03	-0.07405665
113	0xbd39baf9	-0.045344327
114	0xbd59e635	-0.05319806
115	0xbc107cd4	-0.008818824
116	0x3e157703	0.1459618
117	0x3cf26daf	0.029593317
118	0xbd91cda7	-0.07119303
119	0xbd89f73c	-0.06736609
120	0xbdb7f7c7	-0.08982807
121	0x3e6e7336	0.23286137
122	0xbde751d6	-0.11294906
123	0x3d0e411a	0.034730054
124	0xbd355a37	-0.04427549
125	0x3e68ce70	0.22735
126	0xbd97b4d6	-0.074075386
127	0x3e18b448	0.14912522
128	0xbd3d78e8	-0.046257883
129	0x3d948458	0.07251805
130	0x3a5907a8	0.0008279034
131	0x3d69802c	0.057007
132	0xbd852ee9	-0.06503088
133	0xbc929e79	-0.017897831
134	0x384e41ea	4.9175615e-05
135	0x3d126b9c	0.035747156
136	0xbc8ffe06	-0.017577183
137	0x3a0672b8	0.0005128789
138	0x3d3d122f	0.04615992
139	0xbc9162c6	-0.017747294
140	0xbcb5d7e3	-0.02219767
141	0x3d818bde	0.06325506
142	0xbd7c4c80	-0.061596394
143	0xb7b3f817	-2.1453989e-05
144	0x39278210	0.00015974813
145	0xbd2d8244	-0.04236056
146	0xbdb812b4	-0.08987942
147	0xbc4270f8	-0.011867754
148	0xbba72c3b	-0.005101708
149	0xbdc590c7	-0.09646755
150	0x3d386494	0.045017794
151	0x39f40f95	0.00046550916
152	0x3b96e912	0.004605421
153	0x3d036bf9	0.032085393
154	0x39c38a3e	0.00037296297
155	0x3983d640	0.00025145896
156	0x39404cc6	0.00018339147
157	0x3b9b4eee	0.0047396338
158	0xbda2c62d	-0.07947955
159	0xbd129d03	-0.03579427
160	0x39b1186d	0.0003377827
161	0x3ace7137	0.0015750293
162	0xba1bc254	-0.0005941738
163	0xbc413dd6	-0.011794528
164	0x38b86ae3	8.793713e-05
165	0x38565167	5.1097388e-05
166	0xbd0e094a	-0.034676827
167	0xb922d90f	-0.00015530385
168	0xbc356308	-0.011070974
169	0xbd8d4e08	-0.06899649
170	0xb94a7a4d	-0.00019309782
171	0x3915e227	0.00014293996
172	0x3ce17858	0.027523205
173	0x39955dd3	0.000284894
174	0x3b317ab3	0.002708119
175	0xb905a775	-0.00012746251
176	0xb92ec302	-0.00016666579
177	0x3ccd9b78	0.025098547
178	0xb8b1861d	-8.464998e-05
179	0xbd1b8aef	-0.037974294
180	0x3926ae7d	0.00015895996
181	0x38b08322	8.4167594e-05
182	0xbc0c0e5e	-0.008548347
183	0xbbf891ab	-0.0075857244
184	0xbc5446e4	-0.012956355
185	0x3cac3a3b	0.02102386
186	0xb9098eec	-0.0001311858
187	0xbccb1339	-0.02478944
188	0x37f10a71	2.8734301e-05
189	0x390e2080	0.00013554282
190	0x39c0768e	0.00036709424
191	0xbc167849	-0.009183952
192	0x3da533a5	0.08066491
193	0x3910d7b7	0.0001381327
194	0x3d5cb688	0.053885013
195	0x39482b05	0.00019089512
196	0xb96e39dc	-0.00022719003
197	0xb72069d6	-9.561385e-06
198	0xbc1c0337	-0.009522251
199	0xba99b05d	-0.0011725534
200	0x3ba176dd	0.0049274997
201	0xbdcde9f6	-0.1005439
202	0xbdb2b72f	-0.08726346
203	0x3d8ebc74	0.06969538
204	0xbb66b074	-0.003520039
205	0xbdbdfc6e	-0.09276663
206	0xbe1e54fd	-0.15462108
207	0xbd9e72ca	-0.07736738
208	0xbde490aa	-0.11160405
209	0x3df04ccc	0.11733398
210	0xbddab6c1	-0.10679389
211	0x3d8bbf1b	0.0682356
212	0x3dcde879	0.10054106
213	0x3e612856	0.21988043
214	0x3e1ed106	0.15509424
215	0xbe1b07a0	-0.15139627
216	0xbd0b4836	-0.034004413
217	0x3cab97f6	0.020946484
218	0xbdea1916	-0.11430566
219	0xbd345efd	-0.0440359
220	0xbd47ef5c	-0.048812255
221	0xbc19c640	-0.009385645
222	0xbdb4df22	-0.08831622
223	0x3be7a453	0.0070691495
224	0x3de2e05a	0.11077948
225	0x3da036ec	0.078229755
226	0x3d95e0c7	0.073182635
227	0xbd3eb86f	-0.04656261
228	0x3d32fe00	0.043699265
229	0x3e3f24ac	0.18666333
230	0x3e291ae8	0.1651417
231	0xbc94da3b	-0.018170467
232	0x3d6e7a4a	0.058222093
233	0x3e3b3f93	0.1828597
234	0xbdb26054	-0.087097794
235	0xbe1329a8	-0.1437136
236	0x3db1fca5	0.08690766
237	0xbd91ed94	-0.071253926
238	0xbc997e1a	-0.018736888
239	0x3ced5268	0.028969958
240	0xbd2d56a8	-0.04231897
241	0x3a8f79a9	0.0010946292
242	0xbd952f31	-0.07284392
243	0x3d028bf6	0.03187176
244	0x3cf8b9a1	0.030361952
245	0x3ad269b4	0.001605323
246	0xbe0d99c0	-0.13828182
247	0xbd3cfa1c	-0.04613696
248	0xbcda1af8	-0.026624188
249	0xbd8b8a4c	-0.068134874
250	0x3c8b9f42	0.017043713
251	0x3e0bd54d	0.13655587
252	0xbd80dce7	-0.06292134
253	0x3c35a34f	0.011086299
254	0xbd1002e7	-0.035159018
255	0xbd8b4371	-0.06799973

weight f4 [64, 64]
0	0x3dee51f4	0.11636725
1	0xbca122cb	-0.01966991
2	0x3e6dc728	0.23220503
3	0x3ca77a88	0.02044417
4	0x3c9bbe9f	0.019011794
5	0xbe2c004d	-0.1679699
6	0xbdf463de	-0.11933111
7	0x3e295a79	0.16538419
8	0x3d92548b	0.071450315
9	0xbda6cda3	-0.08144691
10	0xbd71a1fc	-0.05899237
11	0x3daf722e	0.085667
12	0xbd272c9e	-0.040814035
13	0xbc4e3545	-0.012585943
14	0xbcecda11	-0.028912576
15	0x3d06dce4	0.0329255
16	0x3e0a8dde	0.1353068
17	0x3e071219	0.13190497
18	0x3cee585d	0.02909487
19	0x3c2c7a08	0.010527141
20	0x3d4f6431	0.05063266
21	0x3dae341e	0.08506034
22	0xbd0235e7	-0.031789687
23	0xbe295587	-0.16536532
24	0xbd09f03f	-0.033676382
25	0x3d2746b3	0.04083891
26	0xbe3a9efe	-0.18224713
27	0x3dfa0289	0.12207515
28	0x3e56eebe	0.2098951
29	0x3d6d7b95	0.057979185
30	0xbd73f7a0	-0.059562325
31	0x3e11d28d	0.14240475
32	0x3c46ca09	0.01213313
33	0xbe3f8b89	-0.18705572
34	0x3e78464c	0.24245566
35	0x3e563eaa	0.20922342
36	0xbe74c80d	-0.23904438
37	0x3e1d7727	0.15377484
38	0x3e49de60	0.19713736
39	0x3e1b7bb7	0.15183912
40	0x3e608fb4	0.21929818
41	0x3e31019c	0.1728577
42	0xbd7347ea	-0.059394754
43	0xbe1ef801	-0.15524293
44	0xbe591c75	-0.21202262
45	0x3e217765	0.15768202
46	0x3c9f6198	0.019455716
47	0x3d5c4221	0.053774003
48	0xbe0ba638	-0.13637626
49	0x3e0f68ec	0.14004868
50	0xba91e0b0	-0.0011129584
51	0xbcd4fe0f	-0.02600005
52	0xbe0a3820	-0.13497972
53	0x3e585802	0.21127322
54	0xbdf10e70	-0.11770332
55	0x3d9f9875	0.07792751
56	0x3d82d56c	0.06388363
57	0x3b6e044e	0.0036318484
58	0x3e78e7fe	0.24307248
59	0xbe055fc6	-0.13024816
60	0xbd623e1d	-0.055235017
61	0x3da34bc1	0.07973433
62	0xbd3a57ea	-0.045493998
63	0x3dbf9c9c	0.09356043
64	0xbe270777	-0.16311441
65	0x3d3ec2c5	0.046572465
66	0xbd292ab4	-0.04130049
67	0x3e466095	0.1937278
68	0xbdd7dd3e	-0.105402455
69	0x3e2de4d1	0.16981818
70	0x3b0256fa	0.0019888268
71	0xbe10c8e4	-0.14139134
72	0xbd7c8bdb	-0.061656814
73	0xbdb4729f	-0.08810925
74	0xbe0ab47a	-0.13545409
75	0x3e0d1f3b	0.13781445
76	0xbdd4df67	-0.10394173
77	0xbd839bb6	-0.06426184
78	0x3df244ad	0.11829505
79	0x3da78679	0.081799455
80	0xbe3609f5	-0.17777236
81	0x3e276812	0.16348293
82	0x3d94711f	0.07248139
83	0x3c3829ab	0.011240403
84	0x3bd03d60	0.0063549727
85	0x3e3b36ac	0.18282574
86	0x3b0c7c42	0.0021436368
87	0x3e7fb06d	0.24969645
88	0xbe20aae4	-0.1569019
89	0xbdfcaa55	-0.12337176
90	0xbe141ce9	-0.14464153
91	0xbdb70bf4	-0.08937827
92	0x3e2f2901	0.17105485
93	0xbe4d7939	-0.20065774
94	0x3ddc8df9	0.10769267
95	0xbdda2309	-0.10651214
96	0xbe1210a1	-0.14264156
97	0x3d6d9876	0.058006726
98	0x3d8e7d06	0.0695744
99	0xbdc732b9	-0.097264715
100	0xbd930a7b	-0.07179733
101	0xbdfe3def	-0.12414157
102	0xbda3e012	-0.080017224
103	0x3d7a9e82	0.06118632
104	0x3dc9bdfa	0.09850688
105	0x3e286ffa	0.16448966
106	0xbe21dbc7	-0.15806495
107	0xbdd7f87f	-0.10545444
108	0xbcebeb31	-0.028798671
109	0xbe69acc2	-0.22819808
110	0x3e44df66	0.19225845
111	0xbe0eb6a7	-0.13936864
112	0x3e36fba0	0.17869425
113	0x3db8240a	0.08991249
114	0xbde774a6	-0.11301546
115	0xbdcaea9d	-0.0990803
116	0x3d4ffec6	0.05078008
117	0xbe4e477b	-0.20144455
118	0x3dff3065	0.124604024
119	0x3d557ecf	0.052122887
120	0xbdac9b3e	-0.084280476
121	0x3d182b3f	0.037150618
122	0x3d71f5d1	0.05907232
123	0x3e5308e3	0.20608859
124	0xbd913b8b	-0.07091435
125	0x3d63762d	0.055532623
126	0xbe350af2	-0.17679957
127	0x3e2904d5	0.1650575
128	0xbc927302	-0.017877106
129	0xbe4700f2	-0.19433954
130	0xbe0d013e	-0.13770005
131	0x3d48fb58	0.049067825
132	0x3d84bb09	0.064809866
133	0xbe1969bc	-0.1498174
134	0xbe204bed	-0.15653963
135	0x3c8d0f84	0.017219312
136	0x3c8b5571	0.017008515
137	0xbd3f42f1	-0.0466947
138	0xbe29e50b	-0.16591279
139	0x3e208722	0.15676549
140	0xbda0d189	-0.07852466
141	0xbe4009f5	-0.18753798
142	0x3e284ec9	0.16436304
143	0x3dfc006f	0.1230477
144	0xbdbc1751	-0.09184135
145	0x3bbc17d5	0.0057401457
146	0x3e1e3576	0.15450081
147	0xbe71c789	-0.23611273
148	0xbd88767a	-0.066632226
149	0x3dc36766	0.09541206
150	0xbd43537b	-0.047687035
151	0xbdd4b33a	-0.10385747
152	0x3d1dbf5a	0.038512565
153	0xbe73e3f5	-0.23817427
154	0x3d31120c	0.0432301
155	0xbe843cfa	-0.2582777
156	0xbdea63bb	-0.11444803
157	0x3e065d30	0.13121486
158	0x3e1aec28	0.15129149
159	0xbe101a51	-0.14072539
160	0xbe2df7ec	-0.16989106
161	0xbd128649	-0.035772596
162	0x3d54d458	0.05196032
163	0xbdcc1fce	-0.09967004
164	0xbe0a2c66	-0.13493499
165	0xbd9cf0d5	-0.076631226
166	0xbe576907	-0.21036159
167	0x3e0d9b16	0.13828692
168	0x3c0afcc6	0.008483117
169	0x3d21e068	0.03952065
170	0x3c837f64	0.016051956
171	0xbdfc24ad	-0.12311683
172	0xbd3c8f58	-0.04603514
173	0x3cea761e	0.028620776
174	0xbe33e3ca	-0.17567363
175	0x3d5a8523	0.053349625
176	0xbe03dea6	-0.12877902
177	0xbe2352ac	-0.15949506
178	0x3de0ef1c	0.109831065
179	0x3e306f62	0.17229989
180	0xbc970b2a	-0.01843794
181	0xbcad45b2	-0.021151397
182	0xbe61b95c	-0.22043365
183	0x3c230628	0.009950198
184	0x3d44c074	0.0480351
185	0xbe65a2d6	-0.22425398
186	0x3e234430	0.1594398
187	0xbdf7c460	-0.120980024
188	0x3e0e4d61	0.13896705
189	0xbd8bffcb	-0.06835898
190	0x3e5d7010	0.2162478
191	0xbe368eab	-0.17827861
192	0xbe5b4941	-0.21414663
193	0xbe32a7d1	-0.1744683
194	0x3d466712	0.04843814
195	0xbeb8057f	-0.35941693
196	0x3da8f5ba	0.082499936
197	0xbe1bcaad	-0.15214033
198	0x3c82933c	0.015939347
199	0xbb558a5b	-0.0032583687
200	0xbd23c732	-0.03998489
201	0xbdb8cc8c	-0.09023389
202	0xbe7dd534	-0.24788362
203	0xbe7d2799	-0.24722137
204	0x3cc8ba92	0.024503026
205	0x3e7ec010	0.24877954
206	0x3e21aa84	0.15787703
207	0x3acf0eec	0.0015797294
208	0xbc5be7a7	-0.013421929
209	0xbe407077	-0.18792902
210	0xbe159a55	-0.14609654
211	0x3db15b44	0.08659986
212	0xbd1326ab	-0.03592555
213	0xbe649296	-0.22321543
214	0xbe064006	-0.1311036
215	0xbdd18319	-0.10230083
216	0x3dc5362f	0.09629475
217	0x3c00dfb1	0.007865832
218	0xbddea256	-0.10870807
219	0xbe64b744	-0.22335535
220	0xbd947bcc	-0.07250175
221	0xbdfadf19	-0.12249584
222	0x3d54e768	0.0519785
223	0x3e1a8d0f	0.15092872
224	0xbdb08548	-0.086191714
225	0xbe08e24f	-0.1336758
226	0xbd5884bc	-0.05286096
227	0x3d88e2a1	0.06683851
228	0xbc836a50	-0.016041905
229	0x3ddc4c37	0.10756724
230	0xbe2d1fbd	-0.16906638
231	0xbe0f65bd	-0.14003654
232	0x3dc2d327	0.0951293
233	0x3e035048	0.12823594
234	0x3cbfae91	0.02339867
235	0xbdefc8aa	-0.117081955
236	0xbd97c203	-0.07410052
237	0xbdcae686	-0.0990725
238	0x3b0524a9	0.002031604
239	0x3e3e70c9	0.18597712
240	0xbe18134a	-0.14851108
241	0x3d537314	0.05162342
242	0xbe404c92	-0.1877921
243	0x3e176e74	0.14788228
244	0x3e36153b	0.17781536
245	0xbd897be8	-0.06713086
246	0xbdcb96c3	-0.09940865
247	0x3d788853	0.060676884
248	0xbe58e7a8	-0.2118212
249	0xbd3c3893	-0.04595239
250	0x3dd3309c	0.10312006
251	0xbdef0308	-0.116705
252	0x3d929dce	0.07159005
253	0x3df18fed	0.1179503
254	0x3d571ed7	0.052519646
255	0x3e1eb580	0.15498924

weight_ih f4 [192, 64]
0	0x3dc896a6	0.09794359
1	0xbcf209e4	-0.029545732
2	0x3e0eb6af	0.13936876
3	0x3d94bf56	0.07263057
4	0xbd240a85	-0.040049095
5	0xbdba54e7	-0.09098225
6	0x3dfe2a8e	0.124104604
7	0x3d38387d	0.044975746
8	0xbc8a92a9	-0.016915636
9	0x3c681eed	0.0141675295
10	0x3b773d01	0.003772557
11	0xbd7917ff	-0.0608139
12	0x3db99eb9	0.09063477
13	0x3dc44c5f	0.09584879
14	0xbd5d4b7a	-0.05402706
15	0xbdc8a438	-0.09796947
16	0x3d1066d5	0.03525432
17	0xbdb2a381	-0.08722592
18	0xbd8e1f22	-0.06939532
19	0xbd64f607	-0.055898692
20	0xbdb67c2b	-0.08910402
21	0xbb826a20	-0.0039799362
22	0xbe16a141	-0.14709951
23	0xbd1ac7cd	-0.0377882
24	0xbd562cce	-0.052288823
25	0xbd7d0330	-0.061770618
26	0x3cb66dd1	0.022269161
27	0x3db8aad1	0.09016956
28	0x3c958bb7	0.018255098
29	0xbb12a387	-0.0022375302
30	0x3ccb07f4	0.024784066
31	0xbd03f35c	-0.032214507
32	0xbe0a2cf3	-0.1349371
33	0x3dce106a	0.100617245
34	0xbdfab577	-0.12241643
35	0x3d90c442	0.07068683
36	0x3dc3ae29	0.09554703
37	0x3e06278e	0.13101026
38	0x3d3eeab4	0.04661055
39	0xbe099d1f	-0.13438843
40	0xbdc09793	-0.094039105
41	0xbe09a50a	-0.13441864
42	0xbd996dee	-0.074916705
43	0xbccd6a46	-0.02507509
44	0x3d99d9de	0.07512258
45	0xbd91e9e8	-0.07124692
46	0xbd2f022b	-0.042726677
47	0xbc98cd72	-0.018652651
48	0x3d86fb3b	0.06590887
49	0x3db919be	0.09038113
50	0x3c8f7347	0.017511023
51	0x3c4327e8	0.01191137
52	0xbd0914e3	-0.033467185
53	0xbda33e1b	-0.0797083
54	0x3d0ed283	0.03486873
55	0xbdb6c199	-0.089236446
56	0xbdca6792	-0.09883036
57	0x3d9e29bb	0.07722803
58	0x3ca43726	0.020045828
59	0x3ce480c6	0.027893435
60	0x3ce0c42a	0.027437288
61	0xbdb5027f	-0.08838367
62	0x3b2bea5a	0.0026232214
63	0x3c0cf23a	0.008602673
64	0xbdceb621	-0.10093332
65	0xbdbd9237	-0.09256404
66	0xbde817f6	-0.11332695
67	0xbdb21a87	-0.08696466
68	0x3c9c330a	0.019067306
69	0x3d3ca7c6	0.04605844
70	0xbd3a1d19	-0.045437906
71	0xbc485d77	-0.012229315
72	0x3c5b7c0c	0.013396274
73	0x3daa9b6b	0.08330425
74	0x3e07464e	0.13210413
75	0x3df4991c	0.11943266
76	0xbda00bad	-0.07814727
77	0x3d594ad5	0.05304988
78	0x3e064a4f	0.13114284
79	0x3e03513f	0.12823962
80	0x3dd91b54	0.106009156
81	0x3d4883f0	0.04895395
82	0x3dbd40c9	0.092408724
83	0xbd85d0f0	-0.06533992
84	0x3d93a1cb	0.07208594
85	0xbd06d186	-0.03291466
86	0xbd8c46c6	-0.068494365
87	0x3c7c62a0	0.015404373
88	0xbd8e8efb	-0.06960865
89	0xbdb05a56	-0.0861098
90	0xbd448eab	-0.04798762
91	0x3d824d63	0.063624166
92	0x3d7cb758	0.061698288
93	0xbe028298	-0.1274513
94	0x3dbff28f	0.09372436
95	0xbd6f7cc4	-0.058468595
96	0xbd58d44b	-0.052936833
97	0x3ddc0d01	0.10744668
98	0xbd5065e3	-0.050878417
99	0x3da3d1a7	0.079989724
100	0xbde337f1	-0.11094654
101	0x3db1149d	0.0864651
102	0xbd40b24b	-0.047045033
103	0xbdcb0923	-0.09913852
104	0xbd995921	-0.07487703
105	0xbdbfaf91	-0.093596585
106	0x3d9d4ba5	0.07680444
107	0xbc5f2fa3	-0.013622197
108	0xbc09f1a6	-0.00841943
109	0x3ddfe989	0.10933215
110	0xbd009108	-0.031388313
111	0x3d3bebc1	0.04587913
112	0xbc751538	-0.014958672
113	0xbc8e623d	-0.017380828
114	0xbcaaa330	-0.020829767
115	0x3dc73b28	0.0972808
116	0x3da57cb2	0.08080424
117	0xbd723fa0	-0.05914271
118	0x3d07843e	0.0330851
119	0xbc4bbd86	-0.012435323
120	0x3d9a10a0	0.07522702
121	0x3d8cb176	0.068697855
122	0x3c1f6abc	0.009730037
123	0xbd483bbf	-0.048885103
124	0xbc896ac7	-0.016774548
125	0xbb4a352b	-0.0030854444
126	0xbdc595aa	-0.09647687
127	0x3d91ba34	0.071155936
128	0xbbf1352e	-0.007361076
129	0xbcb4add0	-0.022055537
130	0xbdb6ff04	-0.08935359
131	0x3d9649f9	0.07338328
132	0x3d50c2b1	0.050966922
133	0xbc995f13	-0.018722093
134	0xbcec293f	-0.028828261
135	0xbd85cbaf	-0.0653299
136	0x3e0b5247	0.13605605
137	0x3da3cedc	0.0799844
138	0xbda1b53b	-0.07895895
139	0x3dbf63ab	0.09345182
140	0x3de3eb50	0.11128867
141	0x3c7b4d2f	0.015338226
142	0x3dc4e0c2	0.09613182
143	0xbe07b63f	-0.13253115
144	0xbc1859de	-0.00929877
145	0xbd03dd9b	-0.03219376
146	0xbc59de37	-0.013297609
147	0xbd80fd48	-0.062983096
148	0xbdc3bb71	-0.09557236
149	0xbd16ee0f	-0.036848124
150	0xbccf043c	-0.025270574
151	0xbe04b6eb	-0.12960403
152	0x3daec678	0.08533949
153	0x3d9a7000	0.075408936
154	0xbddce31e	-0.10785507
155	0x3d1e25c1	0.038610224
156	0x3dec86a2	0.11549117
157	0xbda3023f	-0.07959413
158	0x3e0b9d91	0.13634326
159	0xbaba7eba	-0.0014228441
160	0xbd8cffc2	-0.068847194
161	0x3e083357	0.13300835
162	0xbdcbf30b	-0.09958466
163	0xbb8e35ac	-0.0043398943
164	0x3bb9f617	0.005675088
165	0x3cb593ad	0.022165144
166	0xbd108ac5	-0.03528859
167	0xbd699723	-0.0570289
168	0x3d76950b	0.060200732
169	0xbdca8d90	-0.09890282
170	0x3d18eb02	0.037333496
171	0x3df6d9a2	0.12053229
172	0x3de396aa	0.11112721
173	0xbcc65570	-0.024210662
174	0xbddb18c7	-0.10698085
175	0x3d019e05	0.03164484
176	0x3e069a37	0.13144766
177	0x3b125e25	0.0022333947
178	0x3bb4b00d	0.005514151
179	0xbd1eabf6	-0.038738213
180	0x3d9f8fc0	0.0779109
181	0xbda7128b	-0.08157834
182	0x3d1b8adf	0.037974235
183	0x3dcc7da9	0.09984905
184	0x3e029823	0.12753348
185	0x3dc31afe	0.09526633
186	0x3dc8914d	0.09793339
187	0x3dfbca65	0.12294463
188	0x3cb29f2e	0.021804418
189	0xbda3b577	-0.07993596
190	0x3db35592	0.087565556
191	0xbdb1c91e	-0.08680938
192	0x3b770ee0	0.0037698075
193	0x3d77adca	0.060468473
194	0x3dba46ff	0.09095573
195	0xbdc19efc	-0.09454152
196	0xbd5c74e6	-0.05382242
197	0xbc8deadd	-0.017323906
198	0x3d7ad170	0.06123489
199	0x3b1e14db	0.0024121318
200	0x3d7f6105	0.062348384
201	0xbdc7537d	-0.09732721
202	0xbb971a06	-0.0046112565
203	0xbcf79670	-0.030223101
204	0xbe1db0c2	-0.15399459
205	0xbd47d9db	-0.048791748
206	0xbcc178be	-0.023617145
207	0xbcb478c3	-0.02203024
208	0x3d8b2599	0.067942806
209	0xbd620d9e	-0.055188768
210	0x3db9de8a	0.09075649
211	0x3ca949b0	0.02066502
212	0x3dc0b5d4	0.09409681
213	0xbd0bd62a	-0.03413979
214	0x3d5ffaa6	0.054682396
215	0x3d327b43	0.043574583
216	0xbca11c0a	-0.01966669
217	0xbb37c04e	-0.0028038207
218	0xbdad214c	-0.084536165
219	0x3d8dbe83	0.06921103
220	0x3b9d7c56	0.0048060818
221	0xbe0c4b75	-0.1370066
222	0x3d715501	0.058918957
223	0xbc5a6285	-0.013329153
224	0xbd692638	-0.056921214
225	0xbbbdb79e	-0.005789711
226	0xbdc3e9e8	-0.095660985
227	0x3d8768ce	0.06611787
228	0x3db44c4d	0.08803616
229	0xbdae0b09	-0.084981985
230	0x3dc8ebeb	0.09810623
231	0xbc91fb19	-0.017819928
232	0x3da2c866	0.07948379
233	0x3cc51af5	0.024060706
234	0xbd639a2c	-0.05556695
235	0xbd19516b	-0.03743116
236	0xbd47f3bf	-0.04881644
237	0x3de9b018	0.1141054
238	0xbdaf1ae4	-0.08550051
239	0xbde25567	-0.110514455
240	0xbde49e98	-0.11163062
241	0xbc34d218	-0.011036418
242	0xbe07ca48	-0.13260758
243	0x3da2c672	0.07948007
244	0xbd879eba	-0.066220716
245	0x3ce19116	0.027535003
246	0xbdd1cda5	-0.10244302
247	0x3e0be3fd	0.1366119
248	0xbd8d102f	-0.068878524
249	0xbd67feaf	-0.05663937
250	0xbdda5770	-0.10661209
251	0xbd4254d6	-0.047444187
252	0xbd221397	-0.039569464
253	0x3db1a066	0.08673172
254	0xbcdfe184	-0.027329214
255	0xbbec0c36	-0.007203604

weight_hh f4 [192, 64]
0	0x3b97c917	0.004632126
1	0xbd02433d	-0.031802405
2	0x3d38599f	0.045007344
3	0x3c246bd7	0.010035477
4	0xbd8bd2d6	-0.06827323
5	0xbd17fb12	-0.037104674
6	0xbc12ba06	-0.008955484
7	0xbe15b492	-0.14619663
8	0x3c868c41	0.0164243
9	0xbc03139d	-0.008000282
10	0xbdfb9127	-0.12283545
11	0xbd54561a	-0.051839925
12	0xbd844be9	-0.06459791
13	0xbdcae0e5	-0.099061765
14	0xbda35fdc	-0.07977268
15	0xbe050759	-0.12991084
16	0xbd113044	-0.03544642
17	0xbdb9b3f7	-0.09067529
18	0xbddba8a3	-0.10725524
19	0xbe01e7c2	-0.12686065
20	0x3da7075d	0.08155701
21	0xbd92b21c	-0.07162878
22	0xbcaf06b4	-0.021365501
23	0x3d7ec9c7	0.06220415
24	0x3cbc1c2a	0.022962648
25	0x3ce880d3	0.02838174
26	0xbda6b213	-0.08139434
27	0xbc963a2d	-0.018338287
28	0x3dc32a7d	0.09529588
29	0xbd967682	-0.07346822
30	0x3e0ad24e	0.13556787
31	0x3d81556b	0.0631512
32	0x3d2e636b	0.04257528
33	0x3dfe9589	0.12430865
34	0x3d8d3d75	0.068964876
35	0x3d8843fd	0.06653593
36	0xbd8a7a98	-0.06761664
37	0xbbfaed27	-0.0076576653
38	0xbc55ce05	-0.013049607
39	0x3d875497	0.06607931
40	0x3d6442b1	0.055727664
41	0x3d654f6c	0.055983946
42	0x3d4dc85a	0.0502399
43	0xbdb29ee9	-0.08721716
44	0x3c4de653	0.012567121
45	0xbe0c64e5	-0.13710363
46	0x3de226f4	0.11042586
47	0xbdb1c3b5	-0.08679906
48	0x3aca5813	0.0015437625
49	0xbd715dc4	-0.058927312
50	0x3a7af339	0.0009572986
51	0xbde5700f	-0.11203014
52	0x3dd6ec50	0.10494292
53	0xbdfbd37e	-0.12296198
54	0xbbe82daf	-0.007085524
55	0x3de3470a	0.11097534
56	0xbc956735	-0.01823769
57	0x3d145748	0.03621605
58	0x3bca92aa	0.0061820345
59	0x3d862316	0.06549661
60	0xbdaf2789	-0.085524626
61	0x3d9bd08c	0.076081365
62	0x3d8a0994	0.06740108
63	0x3d58b75f	0.05290925
64	0x3d69c02b	0.05706803
65	0x3d040711	0.0322333
66	0xbd99a4c9	-0.075021334
67	0xbd99639b	-0.07489701
68	0x3d5b078a	0.053473987
69	0xbd15d163	-0.03657664
70	0xbdb6adff	-0.08919906
71	0xbd35c30f	-0.044375475
72	0xbdcb4ffb	-0.099273644
73	0x3db702e5	0.08936099
74	0xbdaea596	-0.08527677
75	0x3dede608	0.116161406
76	0x3d5be1ea	0.053682245
77	0x3dbf5f7a	0.093443826
78	0x3ce8945c	0.028391056
79	0x3c61f838	0.01379209
80	0xbdbd1c2a	-0.092338875
81	0xbd70ff79	-0.058837388
82	0x3d23aae2	0.03995789
83	0x3d49c430	0.049259365
84	0xbd5364fa	-0.05160997
85	0x3ce88e6f	0.02838823
86	0xbcca0762	-0.024661724
87	0xbd9330ba	-0.07187028
88	0xbd63c5e1	-0.055608634
89	0xbd8a9e68	-0.06768495
90	0x3d48c8fc	0.0490198
91	0x3bd893ed	0.006609431
92	0xbcc73e45	-0.024321685
93	0x3c029b98	0.007971667
94	0xbdee1e1f	-0.11626839
95	0x3c9e6a5c	0.019337825
96	0xbd9baa91	-0.07600892
97	0xbd356b3a	-0.044291712
98	0x3db6f397	0.0893318
99	0x3d38ff95	0.045165617
100	0xbcc55c4a	-0.024091858
101	0xbdb5683d	-0.088577725
102	0x3d90ff5e	0.070799574
103	0x3cad17c0	0.021129489
104	0x3df4b2ff	0.11948203
105	0xbc1fbe6f	-0.009749993
106	0xbc30e5d4	-0.010796983
107	0xbd8013c8	-0.06253773
108	0xbd94b00e	-0.07260142
109	0x3d33a984	0.043862835
110	0x3d77db5a	0.060511924
111	0x3ce0033f	0.027345298
112	0x3d8b9463	0.06815412
113	0xbd71b26d	-0.05900805
114	0xbd4739cb	-0.0486391
115	0xbb952685	-0.004551711
116	0x3b77d785	0.0037817669
117	0x3dcc1a6e	0.099659786
118	0x3db7c29a	0.08972664
119	0x3cef55a4	0.029215641
120	0x3dd11d8e	0.10210715
121	0x3ddf2c20	0.10897088
122	0x3d435653	0.047689747
123	0x3d1914ef	0.03737348
124	0xbde0f7de	-0.10984777
125	0xbd5f0dbe	-0.054456465
126	0x3a47e509	0.00076253765
127	0xbdd60e4d	-0.104519464
128	0x3de992e8	0.11404973
129	0x3bb6be29	0.005576868
130	0x3dcc43e9	0.0997389
131	0xbd609504	-0.054829612
132	0xbd95e485	-0.07318977
133	0x3ced9d1b	0.029005578
134	0xbda58094	-0.08081165
135	0xbdb37f5c	-0.08764526
136	0xbdb1d546	-0.08683257
137	0x3d997d9b	0.074946605
138	0xbc838f5f	-0.016059576
139	0x3cda836a	0.026673991
140	0xbe0c0943	-0.13675408
141	0xbd985aed	-0.07439218
142	0x3dbbc406	0.09168248
143	0xbddcfcf7	-0.10790437
144	0x3dbd78d8	0.09251565
145	0xbdbdeb03	-0.092733406
146	0xbd4b16fb	-0.049582463
147	0xbd80d8b5	-0.062913336
148	0xbd60ab72	-0.054851003
149	0x3d45f121	0.04832566
150	0x3c85737c	0.016290419
151	0x3d885981	0.066576965
152	0x3d9cf64a	0.076641634
153	0x3c7bbddd	0.015365091
154	0x3d52ac4f	0.051433858
155	0x3b68f961	0.0035549032
156	0x3d606f5b	0.054793697
157	0xbdf33ba2	-0.118766084
158	0x3df661bb	0.12030359
159	0x3e026c3a	0.12736598
160	0x3d824db6	0.063624784
161	0xbd5e7d04	-0.054318443
162	0x3ce67090	0.028129846
163	0x3d7b3232	0.061327167
164	0xbd486293	-0.048922133
165	0x3b4ccb4b	0.0031249102
166	0xbdf3b6b4	-0.11900082
167	0xbd57fb2b	-0.052729767
168	0xbd0ac331	-0.033877555
169	0xbd72f3d6	-0.05931457
170	0xbd29aba8	-0.04142347
171	0x3d5ec99a	0.05439148
172	0x3d8c8455	0.06861178
173	0xbc9735a9	-0.018458204
174	0x3c454604	0.012040619
175	0x3d66e7ad	0.056373287
176	0x3b5af765	0.0033411619
177	0x3cd0e4c1	0.025499703
178	0xbd856a2f	-0.065143935
179	0x3d19e1f2	0.037568994
180	0xbdc6bb83	-0.09703734
181	0x3d12e7aa	0.035865463
182	0xbda31bef	-0.07964312
183	0x3df556f9	0.11979479
184	0xbd9584d1	-0.07300723
185	0x3d76f8b3	0.06029577
186	0xbd877a03	-0.06615069
187	0x3cecf0ab	0.028923353
188	0x3dba4e24	0.090969354
189	0xbd091b2e	-0.033473186
190	0xbcd30a6d	-0.025761807
191	0x3b878cf8	0.004136678
192	0xbd01f7f7	-0.03173062
193	0x3d3748b2	0.044747062
194	0xbd737492	-0.059437342
195	0xbdd51537	-0.10404437
196	0x3b1c3e6b	0.0023840915
197	0x3ceda63e	0.029009935
198	0x3dc06796	0.093947574
199	0x3dec29e5	0.11531428
200	0x3df151e9	0.11783201
201	0x3d928718	0.07154673
202	0x3d198bb0	0.037486732
203	0xbd218008	-0.03942874
204	0xbc08c6ad	-0.008348149
205	0x3ce398f3	0.027782893
206	0x3cf74a51	0.030186804
207	0xbdb49cad	-0.08818946
208	0xbd6a0fb1	-0.05714387
209	0xbdae233f	-0.085028164
210	0xbd9124d0	-0.070870996
211	0x3decfa47	0.11571174
212	0xbc47e5ab	-0.012200753
213	0x3d0821cc	0.033235356
214	0xbe04032a	-0.12891832
215	0x3d46e47e	0.04855775
216	0xbd60f56c	-0.054921553
217	0xbd217f2c	-0.03942792
218	0xbda9325f	-0.08261561
219	0x3db92325	0.090399064
220	0x3d3ec479	0.04657409
221	0xbb9b428e	-0.0047381585
222	0xbd041b78	-0.03225276
223	0xbd3abb6d	-0.0455889
224	0x3d1404d3	0.036137413
225	0xbdb43106	-0.08798413
226	0xbd739a9c	-0.05947362
227	0xbc7ebaf9	-0.015547507
228	0x3d0d8a7d	0.0345559
229	0x3d07f98c	0.03319697
230	0x3d2c557e	0.04207372
231	0x3d90d1fd	0.07071302
232	0x3ddb5d92	0.107112065
233	0xbd084c6e	-0.033276014
234	0xbcbbab61	-0.022908868
235	0x3dc8fc15	0.09813706
236	0x3cbc1053	0.022957003
237	0x3da6f61b	0.0815241
238	0xbe0268e6	-0.12735328
239	0x3d8fa500	0.07013893
240	0xbd9581be	-0.07300137
241	0x3e16e8cb	0.14737241
242	0x3e03aa40	0.12857914
243	0x3df216e4	0.11820772
244	0xbcb85ff8	-0.022506699
245	0x3df71f0b	0.12066468
246	0x3daa5434	0.08316842
247	0xbcfa2e2e	-0.030539598
248	0xbceceb9c	-0.028920941
249	0x3dbc4134	0.09192124
250	0x3dda1c10	0.10649884
251	0x3d2afe0a	0.041746177
252	0x3e08fe7b	0.13378327
253	0xbdeb8e82	-0.115017906
254	0xbcdd8abb	-0.02704369
255	0xbd98e1a0	-0.074649096

bias_ih f4 [192]
0	0x3c3c0e92	0.011478083
1	0x3de3eaeb	0.111287914
2	0x3dad914c	0.08474979
3	0x3e00ce67	0.12578736
4	0x3c743e2a	0.014907399
5	0x3df63ee5	0.12023715
6	0x3db5d6bd	0.08878849
7	0xbced8035	-0.028991798
8	0xbd528573	-0.0513968
9	0xbcae1833	-0.021251773
10	0x3d3ead85	0.0465522
11	0xbca5caf9	-0.020238386
12	0x3cb0b279	0.021569477
13	0xbd0f500c	-0.034988448
14	0xbcd6ed9e	-0.026236352
15	0x3dc13cc2	0.09435417
16	0xbd50ffd1	-0.051025216
17	0x3da1e767	0.079054646
18	0x3e0e38de	0.1388888
19	0x3d2a0f0c	0.041518256
20	0xbd2da062	-0.04238928
21	0x3cfcd6ea	0.030864198
22	0xbcde1d90	-0.027113706
23	0x3d9319b1	0.071826346
24	0x3d825946	0.06364684
25	0xbd569e6f	-0.052397188
26	0x3b021626	0.0019849627
27	0xbdce093b	-0.10060354
28	0x3e07467c	0.13210481
29	0xbdb5b815	-0.088730015
30	0xbd9864e3	-0.074411176
31	0x3db8bf52	0.090208665
32	0x3d24ab7c	0.040202603
33	0xbdab2045	-0.08355764
34	0x3c6fd0c8	0.01463718
35	0xbd565ad4	-0.052332714
36	0xbe02fc78	-0.12791622
37	0xbd5dd3ae	-0.05415695
38	0x3c4f789b	0.012663032
39	0xaf3dd218	-1.726409e-10
40	0xbd8439ca	-0.06456335
41	0xbcae743d	-0.021295661
42	0xbd88cb21	-0.06679369
43	0xbc2e944c	-0.010655474
44	0xaf6d8f7b	-2.1605999e-10
45	0x3d5b99db	0.053613525
46	0xbd347442	-0.044056185
47	0xbdf47b57	-0.11937588
48	0x3d9da241	0.07696963
49	0x3d8ba5c1	0.068187244
50	0xbd846787	-0.06465059
51	0x3ce8d58f	0.028422145
52	0xbd961f87	-0.07330232
53	0x3cf5e5b7	0.030016763
54	0x3d96c37a	0.07361503
55	0xaeafa6b5	-7.987692e-11
56	0x3e066bc6	0.1312705
57	0xbdb9ef07	-0.09078794
58	0xbabdf309	-0.0014491986
59	0xbe0cfc59	-0.13768138
60	0xbcad2c40	-0.021139264
61	0x3d85ac34	0.06526986
62	0xbd81533a	-0.06314702
63	0xbdeb50de	-0.114900336
64	0x3cf3834f	0.029725699
65	0x3d9483ed	0.07251725
66	0xbe068e98	-0.13140333
67	0xbe10aee4	-0.14129215
68	0x3bfff331	0.007810973
69	0xbdd89cea	-0.10576804
70	0x3cdee742	0.027209882
71	0x3d71a0db	0.058991294
72	0x3d3ee782	0.0466075
73	0xbd69595c	-0.056969985
74	0xbb06124a	-0.0020457678
75	0x3d910bc5	0.07082323
76	0x3df27a6c	0.11839756
77	0xbdc9bdc6	-0.098506495
78	0xbd69d07d	-0.057083596
79	0x3db16d7b	0.0866346
80	0xbe02ea01	-0.12784578
81	0xbd9c68fe	-0.07637213
82	0xbd08434e	-0.03326731
83	0x3d32f45a	0.043690063
84	0x3d979cb8	0.074029386
85	0x3c83bfad	0.01608261
86	0xbd81c8bc	-0.06337115
87	0xbdab49e5	-0.08363704
88	0x3c8ded8a	0.017325182
89	0xbd9e10ae	-0.07718025
90	0xbd1029dd	-0.035196174
91	0x3cd0f006	0.025505077
92	0x3d0b0871	0.033943597
93	0xbca31f42	-0.019912366
94	0x3cf4c7fd	0.029880518
95	0x3d266d53	0.040631603
96	0x3ae0a8d7	0.0017140162
97	0xbdffa309	-0.12482268
98	0xbd7b894d	-0.061410237
99	0xbba612bb	-0.005068151
100	0x3dc2d95c	0.09514114
101	0x3da6d2f1	0.08145703
102	0xbc5c8e56	-0.01346167
103	0x30355479	6.596746e-10
104	0xbba0b321	-0.0049041663
105	0x3de921ae	0.11383377
106	0xbce34480	-0.027742624
107	0x3e1ef192	0.1552184
108	0x308fb4d5	1.0456015e-09
109	0x3d50ec8a	0.05100683
110	0x3dcfb4e0	0.10141921
111	0x3dcb405e	0.099243864
112	0xbcb2d2bf	-0.021829007
113	0xbdb59e96	-0.088681385
114	0x3dceede7	0.1010397
115	0x3d99a192	0.0750152
116	0x3d960cea	0.07326682
117	0xbdb06067	-0.08612137
118	0x3e16bf2e	0.14721367
119	0x2ec99c5a	9.1681954e-11
120	0x3d9c90a2	0.07644774
121	0x3dfe67e9	0.12422163
122	0xbccf6e82	-0.025321249
123	0xbd66bbe8	-0.056331545
124	0x3d8981c3	0.06714203
125	0x3cbfcf61	0.023414316
126	0x3da9868c	0.08277616
127	0x3dcf4c5f	0.101219885
128	0xbdc1d715	-0.09464852
129	0xbdc926c0	-0.09821844
130	0xbc4eafb9	-0.012615138
131	0xbd0b3da4	-0.033994332
132	0x3ce41c5d	0.027845556
133	0x3db175da	0.086650565
134	0xbd6c6246	-0.05771091
135	0x3de5a27f	0.11212634
136	0xbd2ae8ae	-0.041725807
137	0xbdb5d30b	-0.08878144
138	0xbd731437	-0.05934545
139	0xbcfce0b5	-0.030868867
140	0xbc8dc1e2	-0.017304365
141	0x3d9467ea	0.072463825
142	0x3d6074d9	0.054798935
143	0xbd89a962	-0.0672176
144	0xbdc79273	-0.0974473
145	0x3c01dd39	0.007926279
146	0xbdbc4083	-0.09191992
147	0xbde0c826	-0.10975675
148	0xbcd9945a	-0.026559997
149	0x3de4f5c1	0.11179686
150	0xbde9876c	-0.11402783
151	0x3c822b56	0.015889805
152	0x3dcc34e1	0.09971023
153	0xbd5cd473	-0.053913545
154	0xbc29c097	-0.010360858
155	0x3b9c124a	0.0047629224
156	0xbd0a2561	-0.033727054
157	0xbd24753f	-0.040150877
158	0x3d81f7ed	0.06346116
159	0xbd0b8011	-0.03405768
160	0xbe0a617f	-0.13513754
161	0x3daa2967	0.08308678
162	0x3c2e08de	0.010622231
163	0x390e30ac	0.00013560307
164	0xbd4b591e	-0.049645536
165	0xbcaa1c9f	-0.0207656
166	0x3d8c157a	0.06840034
167	0x3088a937	9.943396e-10
168	0x3d0f0c6c	0.034923956
169	0x3d18c3ee	0.037296228
170	0x3da0aa32	0.07844962
171	0xbce8074e	-0.028323796
172	0xaf048ad7	-1.2054656e-10
173	0x3d9be326	0.076116845
174	0xbda04789	-0.07826144
175	0x3d56db0d	0.052454997
176	0x3d84f8f2	0.06492795
177	0x3d15b9bf	0.036554094
178	0xbc7d6d01	-0.015467883
179	0x3df5b25b	0.11996909
180	0x3d77c92d	0.06049459
181	0x3cd422e5	0.025895545
182	0xbd7bfeeb	-0.061522406
183	0x2f545ed6	1.931498e-10
184	0xbd005431	-0.03133029
185	0x3c6b21b6	0.014351299
186	0x3deb5fd1	0.11492885
187	0xbe0e46cc	-0.13894194
188	0xbdb1c6e3	-0.08680513
189	0x3bc55e96	0.0060232384
190	0x3ad92ae6	0.0016568571
191	0x3d4a3e5f	0.049375888
